Men/model.pth (torch, 262503 bytes, 93 tensors)

season_lstm.weight_ih_l0 f4 [256, 3]
0.033493664 0.022527128 -0.048746735 0.105825774 -0.04612484 -0.040110797 -0.056265753 1.6408963e-05
0.15418603 -0.124073416 0.114677414 0.10551111 0.13463499 0.033565592 0.05712029 -0.02940802
-0.0035451546 0.07165285 0.09682567 0.01103899 -0.06910376 -0.059061665 -0.05789783 0.086191766
-0.13251105 -0.056187347 -0.006947428 -0.047648005 0.022260092 -0.17445974 0.20207167 -0.068686455
0.17610739 0.07210798 -0.09021016 0.065669365 -0.024712259 0.08885733 0.0051266877 -0.098082244
-0.012152013 -0.005854645 0.09784193 -0.0029164504 0.101248465 -0.115298755 0.06290924 0.031554885
0.03884049 -0.10555641 -0.043178964 -0.03205747 -0.051442683 0.0701078 0.117122605 0.07001234
0.0038514435 -0.014231297 0.0023900361 -0.09538699 0.13011372 -0.039696738 0.095047824 -0.07759312
-0.020844763 -0.04869524 0.11722927 -0.086780585 -0.042937525 -0.1107931 0.07153317 0.054702993
0.039950073 -0.15298417 -0.07416235 -0.112661526 -0.0933905 -0.025225643 0.03435637 0.13099833
-0.0065323412 -0.094442725 0.019685669 -0.057355512 0.15314637 -0.012826764 0.1232474 -0.09652086
-0.07208372 0.0102497535 0.009400146 -0.0070184413 0.045723286 0.17424178 -0.056806143 -0.002362347
0.07898893 -0.07399168 -0.011496834 -0.15724936 -0.08028032 0.067746066 0.09340488 -0.033967793
-0.00088531466 -0.10635442 -0.08404702 -0.062332243 -0.11881526 -0.08331894 0.15806942 0.08941517
0.04203817 -0.12665465 -0.09291459 -0.043291803 0.0062947487 -0.10400682 -0.059532236 -0.13195755
0.008962055 -0.014987483 -0.04372995 -0.107083194 -0.107526 -0.07151442 0.017595503 -0.25676394
0.016950272 0.05737346 0.11274278 0.14237756 -0.12215582 0.06887273 -0.058681376 -0.094409116
-0.13378464 -0.066935554 0.018157661 -0.059322603 0.047315124 -0.07217054 0.08043403 -0.05906868
-0.042388976 -0.045489203 0.0776833 0.117833585 0.10289888 -0.03723729 0.016689694 0.0042512827
0.026042465 -0.12117202 0.077873446 -0.14621066 0.1996137 -0.023889082 0.08510866 -0.053867843
0.028487768 0.095472425 -0.00956923 -0.123346135 0.05876211 -0.0074432353 -0.006592938 0.120589755
0.101738796 -0.09751559 -0.050448965 0.07822538 0.120396115 0.020931935 -0.04481951 -0.049055554
-0.13447161 0.09452276 0.12637992 -0.09390557 0.021274991 -0.015590876 -0.043177303 -0.050044622
0.0036596975 0.026629446 0.17167129 -0.008404331 0.017061356 0.038950294 -0.014245482 -0.011558835
0.10942625 0.036541346 -0.03836408 -0.02531709 0.010113008 0.062438484 0.056660235 0.060433075
-0.08321727 0.028713277 0.14403139 0.079473294 0.018350052 -0.031338837 -0.0047638654 -0.048463598
0.02811076 0.1307678 0.13975522 0.031831633 -0.07870603 -0.09109998 -0.017973017 0.08362988
-0.0069703944 0.01584157 0.041736614 -0.031695772 -0.037032817 0.12299627 -0.054821238 0.06409098
-0.123362705 0.11836768 0.08245244 0.119214274 -0.12636098 -0.13083331 -0.07837597 0.17207168
0.10971517 0.13538098 0.09897763 0.05557639 -0.04573904 -0.14100733 -0.1390547 -0.12151418
0.06506825 0.0061899642 0.017799366 -0.02626622 0.06757016 -0.038179006 -0.045444485 0.12622479
-0.104195744 0.07356952 -0.010368574 -0.06673372 0.065274805 0.04984115 0.008963595 -0.1263676
00000000: a730 093d d08a b83c a8aa 47bd 2fbb d83d
00000010: 66ed 3cbd 384b 24bd eb76 66bd fba5 8937
00000020: f1e2 1d3e 341a febd fedb ea3d 3516 d83d
00000030: c1dd 093e 137c 093d f7f6 693d 17e9 f0bc
00000040: d355 68bb bbbe 923d 894c c63d e1dc 343c
00000050: 4686 8dbd a5ea 71bd 4626 6dbd 4f85 b03d
00000060: fab0 07be b424 66bd 40a7 e3bb 8e2a 43bd
00000070: cc5a b63c 93a5 32be e0eb 4e3e 7cab 8cbd
00000080: 7f55 343e 59ad 933d 1bc0 b8bd a97d 863d
00000090: 5d71 cabc d5fa b53d c6fd a73b 58df c8bd
000000a0: 3d19 47bc 52d8 bfbb 5a61 c83d eb21 3fbb
000000b0: 5b5b cf3d c121 ecbd 8fd6 803d b23f 013d
000000c0: 3517 1f3d f62d d8bd 6ddc 30bd b24e 03bd
000000d0: 90b5 52bd ae94 8f3d fadd ef3d a162 8f3d
000000e0: 8068 7c3b 632a 69bc 27a2 1c3b 415a c3bd
000000f0: 883c 053e 0c99 22bd 6fa8 c23d 24e9 9ebd
00000100: a3c2 aabc a974 47bd e615 f03d 05ba b1bd
00000110: 42df 2fbd 7ee7 e2bd fc7f 923d 3f10 603d
00000120: b0a2 233d e2a7 1cbe 6ee2 97bd 16bb e6bd
00000130: 8543 bfbd 02a6 cebc 44b9 0c3d 6d24 063e
00000140: 400d d6bb 306b c1bd d743 a13c 9ded 6abd
00000150: 67d2 1c3e 5927 52bc 2269 fc3d bbac c5bd
00000160: a1a0 93bd 95ee 273c 1203 1a3c f4fa e5bb
00000170: 5748 3b3d 706c 323e 8fad 68bd 9bd1 1abb
00000180: f3c4 a13d f388 97bd 385d 3cbc fa05 21be
00000190: 026a a4bd 73be 8a3d 0f4b bf3d d021 0bbd
000001a0: 7614 68ba 59d0 d9bd d820 acbd 1850 7fbd
000001b0: 6a55 f3bd 1fa3 aabd f3dc 213e 4d1f b73d
000001c0: 3730 2c3d c2b1 01be 014a bebd bf52 31bd
000001d0: 2e44 ce3b 8701 d5bd 13d8 73bd e11f 07be
000001e0: 95d5 123c 0f8e 75bc 2d1e 33bd 6f4e dbbd
000001f0: 9736 dcbd 2776 92bd 7224 903c 9076 83be
00000200: 4cdb 8a3c 6f00 6b3d b0e5 e63d 6ccb 113e
00000210: d52c fabd 250d 8d3d e25b 70bd 9159 c1bd
00000220: d7fe 08be 8215 89bd 60bf 943c 42fc 72bd
00000230: 81cd 413d 26ce 93bd 99ba a43d 00f2 71bd
00000240: 10a0 2dbd e352 3abd 6c18 9f3d bc52 f13d
00000250: a6bc d23d 2186 18bd d3b8 883c 584e 8b3b
00000260: 0257 d53c 0929 f8bd 1d7c 9f3d 3fb8 15be
00000270: 8967 4c3e 09b3 c3bc 734d ae3d 87a4 5cbd
00000280: 2e5f e93c 0c87 c33d 42c8 1cbc e69c fcbd
00000290: 8ab0 703d 62e6 f3bb 9309 d8bb c3f7 f63d
000002a0: 6e5c d03d 41b6 c7bd 93a3 4ebd a134 a03d
000002b0: 3d92 f63d 7379 ab3c aa94 37bd 7aee 48bd
000002c0: edb2 09be 2695 c13d bd69 013e 9051 c0bd
000002d0: e448 ae3c e070 7fbc afda 30bd 97fb 4cbd
000002e0: 89d7 6f3b ff25 da3c 99ca 2f3e 52b2 09bc
000002f0: 42c4 8b3c 588a 1f3d e265 69bc 4561 3dbc
00000300: df1a e03d 61ac 153d a723 1dbd c965 cfbc
00000310: 08b1 253c 7fbf 7f3d 9014 683d ac88 773d
00000320: d16d aabd 1b38 eb3c f77c 133e e5c2 a23d
00000330: d952 963c 275d 00bd 331a 9cbb c481 46bd
00000340: 8948 e63c ffe7 053e fe1b 0f3e e361 023d
00000350: a130 a1bd a092 babd 263c 93bc 2446 ab3d
00000360: e867 e4bb 2ec6 813c 03f4 2a3d 6dd3 01bd
00000370: b9af 17bd 78e5 fb3d 3c8c 60bd 2242 833d
00000380: 96a5 fcbd c16a f23d d3dc a83d 9d26 f43d
00000390: c664 01be 2bf9 05be 9583 a0bd 8f33 303e
000003a0: 59b2 e03d 50a1 0a3e c9b4 ca3d 12a4 633d
000003b0: dc58 3bbd 3a64 10be 5b64 0ebe 6ddc f8bd
000003c0: 8142 853d 2fd5 ca3b facf 913c 412c d7bc
000003d0: 3962 8a3d 9761 1cbd ff23 3abd 1241 013e
000003e0: 9464 d5bd 9eab 963d f4e0 29bc b0ab 88bd
000003f0: ccae 853d 3c26 4c3d 0bdc 123c 8266 01be

season_lstm.weight_hh_l0 f4 [256, 64]
-0.2003993 0.21730402 0.13801897 -0.07220018 0.068436235 0.06030629 -0.17863974 0.13449863
0.0380154 0.13316853 -0.16817936 -0.09218597 0.11811795 -0.17179641 0.16701637 -0.13860203
-0.021803284 -0.25994503 0.21866056 -0.11294264 -0.22044022 -0.07444704 0.05308851 -0.06535048
0.1539721 0.1189748 0.05248327 -0.01285204 -0.30456236 -0.31230193 0.060938895 0.3386115
-0.09983178 0.2027857 -0.31906572 -0.14421532 -0.22051619 -0.26628658 0.20419492 0.27509254
-0.08719056 0.089134574 -0.011160567 0.24651867 0.09250434 0.19094561 0.16555153 0.08299301
-0.06420604 0.22910902 -0.18095982 0.20642677 0.2507277 7.54939e-05 -0.27183625 0.11815472
0.09234395 0.19331098 -0.112598725 -0.24052519 0.24378225 0.14857225 0.24460186 -0.1559274
-0.09455199 0.020658854 -0.05951735 0.01161989 -0.042371225 -0.037972193 0.02645091 -0.047915637
0.06804961 -0.104919925 -0.13300456 -0.09077605 -0.04213771 -0.10798524 0.0043484634 -0.0048344373
0.07438086 0.07893892 0.11692474 -0.07238595 -0.1877702 0.030419001 0.007437883 0.07202446
0.09089265 0.16109425 0.10572856 0.14476547 -0.015098992 -0.11500632 0.18274663 -0.047469243
-0.01491786 0.10162579 0.05823753 -0.05625235 -0.026922287 -0.10143288 -0.010473934 0.13677494
-0.018425012 0.05594797 -0.06793508 -0.05199532 0.060984854 0.030196149 0.1393691 0.045701902
0.08559014 0.025709044 -0.018961202 0.085617356 0.013453329 0.09334551 0.02651798 -0.06490682
-0.1168053 0.07066395 -0.04297145 -0.07448111 -0.00234354 0.04612046 0.14047723 0.0073059737
-0.018340794 -0.16193946 -0.03217142 -0.056482706 0.09194056 0.014896086 0.19180678 0.0015387827
0.008373187 -0.021705609 -0.10522359 0.052627362 0.030278591 -0.059356444 -0.1369447 0.11391741
0.093127385 0.10616635 0.058285445 -0.021574968 -0.015291301 0.058933716 -0.05715769 -0.030231792
-0.14813162 0.043422516 -0.0554874 -0.012943253 0.13037784 -0.008094055 -0.06625955 0.027156174
-0.0016708614 -0.019863177 0.095331475 -0.031963475 -0.0643563 0.029541533 -0.059515506 -0.0825964
-0.03265158 0.03014493 0.042774685 -0.042123478 -0.054821566 -0.08423073 0.0182341 -0.045276158
-0.09659525 -0.017112924 -0.058391046 -0.090803444 -0.05706056 0.06571919 -0.02920276 -0.123842984
-0.06581625 0.056967407 0.14380291 -0.09740149 -0.110099904 -0.083795354 0.076416664 0.02689238
-0.08527627 0.03326213 -0.12645899 0.018740084 -0.01279757 0.15518038 0.08789445 -0.050189756
-0.019135267 -0.05657587 0.09204499 -0.06856776 -0.008421201 -0.0027013766 0.10444616 0.020734623
0.009126256 0.12526114 0.059428044 0.121222794 0.089722015 -0.010435312 0.07887625 0.14885251
-0.036074087 -0.09089353 -0.18558271 -0.043408282 0.098314926 0.064856105 0.022079987 -0.044631477
-0.12870573 -0.1754517 0.191959 0.0014237809 0.06397101 0.076172546 -0.09271981 -0.20184897
0.0894613 -0.10973024 -0.0168745 -0.045691952 -0.057288956 -0.11499749 0.02951826 -0.09494664
-0.047159247 0.055429835 -0.019354915 -0.14917025 -0.0827156 0.033962127 0.03811897 0.12900609
-0.056854248 -0.02596874 0.09562634 0.081914455 -0.12302075 -0.09235645 -0.13562681 -0.1489466
00000000: 7935 4dbe f284 5e3e d854 0d3e b0dd 93bd
00000010: 4c28 8c3d ba03 773d 56ed 36be 02ba 093e
00000020: 09b6 1b3d 555d 083e 3637 2cbe ffcb bcbd
00000030: d3e7 f13d 66eb 2fbe 5706 2b3e b1ed 0dbe
00000040: cd9c b2bc 8417 85be 8ee8 5f3e 794e e7bd
00000050: 15bb 61be b177 98bd 5673 593d 79d6 85bd
00000060: ddaa 1d3e 0fa9 f33d b3f8 563d 5d91 52bc
00000070: 99ef 9bbe 0ae6 9fbe 109b 793d 7d5e ad3e
00000080: 9b74 ccbd 0ea7 4f3e 955c a3be 2ead 13be
00000090: ffce 61be b756 88be 7918 513e eed8 8c3e
000000a0: f790 b2bd 308c b63d d0da 36bc 646f 7c3e
000000b0: ea72 bd3d 3f87 433e 5786 293e 3df8 a93d
000000c0: 757e 83bd 8e9b 6a3e 884d 39be 8a61 533e
000000d0: 625f 803e 7b52 9e38 1f2e 8bbe 1afb f13d
000000e0: d31e bd3d 50f3 453e 299a e6bd 3c4c 76be
000000f0: 0ea2 793e 5323 183e e978 7a3e 6fab 1fbe
00000100: 79a4 c1bd c23c a93c 77c8 73bd 5a61 3e3c
00000110: 738d 2dbd bb88 1bbd 94af d83c 3043 44bd
00000120: 985d 8b3d 42e0 d6bd 5932 08be cbe8 b9bd
00000130: 9798 2cbd 5e27 ddbd 8e7d 8e3b 336a 9ebb
00000140: fe54 983d baaa a13d 3d76 ef3d 163f 94bd
00000150: d546 40be 4531 f93c 7cb9 f33b 8f81 933d
00000160: ed25 ba3d e4f5 243e 3788 d83d 663d 143e
00000170: c361 77bc 6f88 ebbd ef21 3b3e 1c6f 42bd
00000180: 0a6a 74bc 2f21 d03d 7a8a 6e3d dd68 66bd
00000190: 218c dcbc 0bbc cfbd dd9a 2bbc bb0e 0c3e
000001a0: 0df0 96bc b329 653d 8c21 8bbd 0bf9 54bd
000001b0: 41cb 793d ea5d f73c c6b6 0e3e eb31 3b3d
000001c0: e249 af3d c69b d23c 8654 9bbc 2758 af3d
000001d0: 5a6b 5c3c ee2b bf3d 3c3c d93c deed 84bd
000001e0: 9e37 efbd 43b8 903d d502 30bd 8d89 98bd
000001f0: 1496 19bb cfe8 3c3d 43d9 0f3e f366 ef3b
00000200: 6f3f 96bc 75d3 25be 2ec6 03bd 695a 67bd
00000210: 554b bc3d b70e 743c ff68 443e fbb0 c93a
00000220: b12f 093c f6cf b1bc 777f d7bd ca8f 573d
00000230: cf0a f83c be1f 73bd 3b3b 0cbe 884d e93d
00000240: 92b9 be3d be6d d93d b8bc 6e3d fdbd b0bc
00000250: 5d88 7abc 7b64 713d 2f1e 6abd aaa8 f7bc
00000260: d1af 17be cfdb 313d c246 63bd f00f 54bc
00000270: c581 053e ed9c 04bc 16b3 87bd a076 de3c
00000280: ce00 dbba 1ab8 a2bc 263d c33d 22ec 02bd
00000290: 3ccd 83bd 1601 f23c 88c6 73bd 4d28 a9bd
000002a0: aabd 05bd 80f2 f63c 8234 2f3d ab89 2cbd
000002b0: 948c 60bd 2981 acbd ae5f 953c 7e73 39bd
000002c0: bbd3 c5bd 6730 8cbc 732b 6fbd 28f7 b9bd
000002d0: 55b8 69bd c897 863d a03a efbc 64a1 fdbd
000002e0: acca 86bd a856 693d 1241 133e 6f7a c7bd
000002f0: 0f7c e1bd e69c abbd 5780 9c3d 694d dc3c
00000300: 53a5 aebd df3d 083d 777e 01be ce84 993c
00000310: e6ac 51bc 9be7 1e3e 0102 b43d c693 4dbd
00000320: 90c1 9cbc 19bc 67bd 1582 bc3d 416d 8cbd
00000330: 14f9 09bc 9409 31bb dee7 d53d a8db a93c
00000340: 4b86 153c 7544 003e d26a 733d a843 f83d
00000350: 2dc0 b73d dff8 2abc df89 a13d cb6c 183e
00000360: 6cc2 13bd 6326 babd 6509 3ebe e2cc 31bd
00000370: 5659 c93d 47d3 843d 17e1 b43c 7fcf 36bd
00000380: 6fcb 03be 9ca9 33be e690 443e 299e ba3a
00000390: 3c03 833d 5a00 9c3d e2e3 bdbd 7fb1 4ebe
000003a0: 7c37 b73d 40ba e0bd 643c 8abc 7c27 3bbd
000003b0: d3a7 6abd ce83 ebbd 47d0 f13c 6273 c2bd
000003c0: 0e2a 41bd 650a 633d 338e 9ebc 16c0 18be
000003d0: cc66 a9bd df1b 0b3d a322 1c3d 2c1a 043e
000003e0: 00e0 68bd 65bc d4bc bed7 c33d c4c2 a73d
000003f0: 4ef2 fbbd 6125 bdbd c1e1 0abe 7585 18be

season_lstm.bias_ih_l0 f4 [256]
-0.20846416 -0.040443562 -0.010282095 0.13667296 -0.11037261 0.033591826 0.11177906 -0.015110227
-0.05639079 0.05959829 0.15713933 -0.14435361 0.005620262 -0.096956186 -0.02008562 0.08353233
-0.13671897 0.2677009 -0.047409736 0.01646101 0.10796832 0.0702168 -0.08391035 -0.032130867
-0.14848144 0.13605857 -0.14271782 0.0064082155 0.1727606 -0.038983267 -0.15431066 0.08020365
-0.17107698 0.08202673 0.0342064 0.154956 0.047371943 -0.06433557 0.16267137 0.024430346
-0.077439494 0.12506784 -0.102069795 0.22829157 -0.022482676 -0.114084534 -0.07217423 0.07890875
-0.0955903 -0.13219745 0.08607828 0.07739773 0.04721253 0.111752614 0.14634617 0.118503235
-0.007612303 0.16492419 0.07701676 -0.02852694 0.017415978 -0.004292152 0.17302501 0.10369261
0.13317384 0.09153452 0.07541472 0.06377939 -0.09645494 0.012404704 -0.05762976 0.043128956
-0.030805591 -0.03073023 -0.06141303 -0.07849898 0.03691903 0.15536371 -0.06608715 -0.07930715
-0.071604066 0.04200069 -0.09271491 0.07225707 0.14046848 0.114859335 -0.06295318 -0.042334132
0.12399608 0.0019055776 -0.16494675 -0.07957838 0.075224034 -0.050488368 -0.06990951 0.09426664
-0.06266473 0.008752975 0.14428364 0.13266382 0.11406606 -0.023980645 0.10057967 -0.025441729
0.043251928 -0.05670444 0.19980463 0.04375993 0.02030945 -0.05627841 -0.025978127 -0.020613084
0.09305799 0.09259408 0.06944774 0.008627985 -0.05127883 -0.05963747 -0.0659915 -0.034058616
0.011815941 -0.040569887 0.15419646 -0.034639105 -0.07650934 -0.12324654 0.102156445 0.017339181
0.015102618 0.15510738 0.1250415 -0.19109103 0.08087047 0.18521841 0.016673641 0.02629144
-0.055375885 -0.106541015 0.05735354 -0.0818605 -0.019640848 -0.117188804 0.032938708 0.11796669
0.21169265 -0.11968396 0.1146 -0.015110094 -0.10011475 0.003682443 0.089164734 0.2061344
0.012922585 0.15068392 -0.061927952 0.13833386 -0.1531205 0.10580863 0.15333042 0.12214089
-0.055260833 0.019383125 -0.18966813 -0.18158531 0.084066935 -0.15047555 0.0334996 -0.0014755565
-0.18677911 0.023267485 0.009872324 -0.10063594 -0.19111167 -0.10642267 0.0553276 0.044079237
0.08250517 -0.06318391 -0.1961462 -0.069045305 0.2102346 0.06327333 -0.052421905 0.03694053
-0.016298557 0.06872943 -0.11481111 -0.13158219 -0.00208703 0.025695113 0.15656321 -0.15847616
0.13034095 0.17795801 0.099498786 0.10872503 -0.085049234 0.06946919 0.04306922 0.15192564
0.12105176 -0.09329985 0.094498165 0.10607946 0.0011338871 -0.08101362 0.15672414 0.02049812
0.17578089 0.12219223 0.17029871 -0.009141229 -0.0300278 0.091604 -0.08698945 -0.07554725
0.15112375 0.16239935 -0.033614706 0.105016 0.12259114 -0.041468363 -0.03958594 -0.015742647
-0.14023139 -0.09123166 0.0121901315 0.03307786 0.056503743 -0.0146157695 0.030592596 -0.056304473
0.050550062 -0.13207704 0.054080475 -0.06242205 0.0927158 0.015793527 -0.21921283 0.04321228
0.014157606 -0.13423423 0.10529357 0.10102673 0.13794497 -0.09675422 0.09919805 0.07643075
0.06992516 0.057644267 -0.14687182 0.09938144 0.08505621 0.07038217 0.071606316 0.039274972
00000000: a177 55be 26a8 25bd 3b76 28bc fff3 0b3e
00000010: 090b e2bd 9597 093d 6bec e43d e390 77bc
00000020: 07fa 66bd 561d 743d 22e9 203e 6fd1 13be
00000030: 2d2a b83b f790 c6bd 998a a4bc 0013 ab3d
00000040: 0f00 0cbe 1810 893e b630 42bd 3dd9 863c
00000050: 7f1e dd3d d3cd 8f3d 31d9 abbd a89b 03bd
00000060: 850b 18be f052 0b3e 9f24 12be 02fc d13b
00000070: 28e8 303e ebac 1fbd 9d03 1ebe d041 a43d
00000080: ce2e 2fbe a1fd a73d 031c 0c3d c9ac 1e3e
00000090: 1509 423d 5ec2 83bd 5393 263e 2622 c83c
000000a0: 9998 9ebd c911 003e f809 d1bd 44c5 693e
000000b0: 972d b8bc 27a5 e9bd 15d0 93bd e99a a13d
000000c0: d9c4 c3bd c55e 07be cf49 b03d b382 9e3d
000000d0: ed61 413d 8ede e43d c5db 153e d3b1 f23d
000000e0: a070 f9bb e3e1 283e f7ba 9d3d 54b1 e9bc
000000f0: f4ab 8e3c 2ea5 8cbb 782d 313e cb5c d43d
00000100: b95e 083e 7376 bb3d 0873 9a3d c59e 823d
00000110: 2b8a c5bd 193d 4b3c 2f0d 6cbd fda7 303d
00000120: 025c fcbc f7bd fbbc 3b8c 7bbd 13c4 a0bd
00000130: 6938 173d aa17 1f3e b358 87bd c96b a2bd
00000140: 27a5 92bd ea08 2c3d 51e1 bdbd 84fb 933d
00000150: f8d6 0f3e 5f3b eb3d 99ed 80bd 8e66 2dbd
00000160: a8f1 fd3d 93c4 f93a cde7 28be fdf9 a2bd
00000170: 0f0f 9a3d e4cc 4ebd b82c 8fbd de0e c13d
00000180: 5e56 80bd a368 0f3c 17bf 133e 06d9 073e
00000190: 779b e93d 0f73 c4bc b7fc cd3d 2c6b d0bc
000001a0: ef28 313d ea42 68bd 9699 4c3e 9d3d 333d
000001b0: 0160 a63c 3184 66bd 15d0 d4bc c5dc a8bc
000001c0: 3095 be3d f7a1 bd3d 9e3a 8e3d 645c 0d3c
000001d0: c009 52bd 6b46 74bd 8d26 87bd 0c81 0bbd
000001e0: a697 413c 9c2c 26bd ade5 1d3e bce1 0dbd
000001f0: eeb0 9cbd af68 fcbd 6637 d13d e60a 8e3c
00000200: f970 773c 78d4 1e3e e10a 003e 5ead 43be
00000210: 6b9f a53d e5a9 3d3e 2997 883c 2561 d73c
00000220: d3d1 62bd 2d32 dabd 8ceb 6a3d 7aa6 a7bd
00000230: d8e5 a0bc af00 f0bd bdea 063d 8598 f13d
00000240: f5c5 583e dd1c f5bd 68b3 ea3d 5490 77bc
00000250: f608 cdbd 2455 713b 009c b63d e514 533e
00000260: 40b9 533c e34c 1a3e 2aa8 7dbd 64a7 0d3e
00000270: 9fcb 1cbe 32b2 d83d a602 1d3e 0125 fa3d
00000280: 2f59 62bd 5cc9 9e3c 5d38 42be 80f1 39be
00000290: 492b ac3d 4316 1abe e036 093d 7667 c1ba
000002a0: 0643 3fbe 749b be3c 87bf 213c 371a cebd
000002b0: c7b2 43be 21f4 d9bd 329f 623d 6e8c 343d
000002c0: 78f8 a83d 9166 81bd 8dda 48be a067 8dbd
000002d0: bd47 573e 7395 813d 5ab8 56bd f44e 173d
000002e0: 8d84 85bc 04c2 8c3d 1622 ebbd 7bbd 06be
000002f0: 8ec6 08bb 8f7e d23c 1b52 203e 9347 22be
00000300: 1978 053e a03a 363e 05c6 cb3d 3bab de3d
00000310: 4b2e aebd dd45 8e3d 5a69 303d 6592 1b3e
00000320: fce9 f73d fe13 bfbd 4188 c13d 3040 d93d
00000330: f09e 943a 78ea a5bd 4b7c 203e aceb a73c
00000340: e8ff 333e eb3f fa3d c962 2e3e 18c5 15bc
00000350: dcfc f5bc e19a bb3d 8627 b2bd 84b8 9abd
00000360: 2fc0 1a3e 044c 263e 93af 09bd a112 d73d
00000370: 1011 fb3d bbda 29bd de24 22bd b9f6 80bc
00000380: d198 0fbe aad7 babd 1eb9 473c a67c 073d
00000390: 7870 673d fb76 6fbc 539d fa3c 859f 66bd
000003a0: 950d 4f3d 343f 07be 7d83 5d3d 43ae 7fbd
000003b0: c8e1 bd3d 6d61 813c 5479 60be 5cff 303d
000003c0: 4ef5 673c b374 09be 28a4 d73d 1ae7 ce3d
000003d0: 7241 0d3e 1427 c6bd 5928 cb3d ba87 9c3d
000003e0: ec34 8f3d 651c 6c3d 9165 16be 7f88 cb3d
000003f0: f331 ae3d 8724 903d 55a6 923d cbde 203d

season_lstm.bias_hh_l0 f4 [256]
-0.2670002 0.05145949 -0.037808366 0.17198439 -0.039618447 -0.012939731 0.12905276 0.06312663
0.004242929 0.14362232 0.037401296 -0.09308684 -0.0532449 0.013703039 -0.16990565 0.042194173
-0.29967126 0.07833728 -0.09624913 -0.024625389 0.102791585 0.08761341 -0.05862028 0.012582128
-0.10779044 -0.017045388 -0.3141198 -0.019191166 -0.023516135 0.07150698 -0.038959246 0.13884321
-0.15799205 0.037820052 0.20519388 0.054525778 0.0015954557 -0.11222192 0.03685829 -0.01007236
-0.068149954 -0.10716849 0.0036299815 0.14974007 0.008094001 -0.03188099 -0.023070121 0.17150283
-0.08885993 -0.12750956 0.06295697 0.07707897 -0.05189594 -0.03781852 0.06985208 0.19685018
-0.024142085 0.10674733 0.030467022 -0.08402151 -0.035305765 -0.06605606 0.03450064 -0.11776466
-0.06290492 0.105018646 0.03499523 0.13648374 0.14186938 -0.041734565 -0.0543963 0.08993992
0.015963955 -0.10493165 -0.05072865 -0.05464732 0.009522534 0.086481445 0.061242875 0.10892657
-0.09558775 0.1837771 -0.04267153 -0.14483702 0.0017741327 0.07951853 0.022327764 -0.068367526
0.03785663 0.07266038 0.030812906 -0.046094794 -0.06644725 -0.04169731 -0.043766554 -0.033369556
-0.026851019 0.12248626 0.065634 -0.048013948 -0.06402692 -0.012450087 0.10665661 0.014696279
-0.0965288 0.03491161 0.21166857 -0.024750153 0.053381126 0.057149976 0.02847589 0.12078158
-0.12891662 -0.112260945 0.095002934 -0.027049376 0.1724036 0.054453596 -0.077675305 0.082239814
-0.19029072 -0.116730124 0.11765659 0.14086063 0.042171676 0.034922026 0.06916506 0.051890217
-0.16516256 0.1083274 0.064683296 -0.11401741 0.004424311 0.12303558 -0.097763054 -0.008497321
-0.022562638 -0.004788488 -0.10776626 -0.15972248 -0.032464433 -0.10149596 0.03783622 0.1549803
0.037424285 -0.1069507 -0.05360621 -0.112042785 0.008744908 -0.014497063 0.116684236 0.19914323
0.09229157 0.1463538 -0.023965793 0.16339982 -0.15967476 0.114318594 0.089751594 0.11232624
-0.18166912 0.057311468 -0.023591178 -0.16790886 0.09840233 0.07757141 0.049718414 0.03533364
-0.07765701 -0.029077051 -0.100503474 -0.017700952 -0.13832578 0.105154715 0.13325705 0.042613365
-0.13246657 0.095009275 -0.0975618 -0.09718491 0.19628225 0.027647246 -0.08413591 0.17735986
-0.142668 -0.040123425 -0.06829722 -0.0016346393 -0.022100078 -0.022168357 -0.039350748 -0.037927736
0.1521427 0.02140448 -0.078786194 0.11162658 -0.15938762 0.06813478 0.19981545 0.009108732
0.12067102 0.07473788 0.005644406 -0.09359386 -0.10700056 -0.10400116 0.09444229 0.042637113
0.17690639 0.13460888 0.06459342 -0.027601978 0.18997441 0.15640196 0.089997664 -0.010562741
0.21576321 0.058986064 -0.09366575 0.14157706 0.06654115 0.037573773 0.042365365 -0.036884908
-0.14336087 -0.03475376 0.08990007 0.11131913 0.0946728 0.08298173 0.055416506 -0.0052824453
0.034889016 0.0046990975 0.07105306 -0.029156381 0.020429416 0.08997564 -0.107571535 0.20489228
0.11636924 -0.17627807 -0.05335263 0.054819975 0.10192484 -0.033299617 -0.04207645 0.11050319
-0.012610702 0.05079767 -0.1378433 0.028024925 0.1192151 0.057890214 -0.077796586 0.004500942
00000000: 40b4 88be 30c7 523d f2dc 1abd ad1c 303e
00000010: f446 22bd 2a01 54bc 6826 043e 8948 813d
00000020: 4508 8b3b bb11 133e 1a32 193d 50a4 bebd
00000030: 5317 5abd b682 603c bffb 2dbe ccd3 2c3d
00000040: 836e 99be 4c6f a03d 441e c5bd 2fbb c9bc
00000050: 6584 d23d a96e b33d d21b 70bd 4525 4e3c
00000060: 3cc1 dcbd c5a2 8bbc 4fd4 a0be cb36 9dbc
00000070: e9a4 c0bc 4072 923d bb93 1fbd ea2c 0e3e
00000080: abc8 21be 33e9 1a3d 581e 523e 6c56 5f3d
00000090: 9c1e d13a 9bd4 e5bd b8f8 163d 8a06 25bc
000000a0: 3492 8bbd 277b dbbd fce4 6d3b 7655 193e
000000b0: b39c 043c a495 02bd 8dfd bcbc 709e 2f3e
000000c0: 32fc b5bd de91 02be 95ef 803d 94db 9d3d
000000d0: d690 54bd 98e7 1abd 9b0e 8f3d 1893 493e
000000e0: 9fc5 c5bc 589e da3d fa95 f93c 7813 acbd
000000f0: c79c 10bd 6648 87bd 8b50 0d3d 992e f1bd
00000100: 4bd4 80bd 0414 d73d 2957 0f3d 65c2 0b3e
00000110: 3546 113e ddf1 2abd a8ce 5ebd 6c32 b83d
00000120: d7c6 823c 68e6 d6bd d8c8 4fbd ded5 5fbd
00000130: 6704 1c3c 2f1d b13d cfd9 7a3d e514 df3d
00000140: 83c3 c3bd 1030 3c3e 58c8 2ebd 2850 14be
00000150: 048a e83a 9cda a23d b7e8 b63c 4604 8cbd
00000160: 8e0f 1b3d f7ce 943d 596b fc3c e5cd 3cbd
00000170: 7f15 88bd ccca 2abd 8f44 33bd 84ae 08bd
00000180: abf6 dbbc 14da fa3d 1e6b 863d 46aa 44bd
00000190: 8c20 83bd 73fb 4bbc c86e da3d a9c8 703c
000001a0: e4b0 c5bd 7aff 0e3d a5bf 583e d5c0 cabc
000001b0: 2ba6 5a3d 1816 6a3d 4546 e93c 555c f73d
000001c0: b802 04be 11e9 e5bd e690 c23d a796 ddbc
000001d0: 928a 303e bc0a 5f3d 3b14 9fbd 596d a83d
000001e0: 92db 42be 3410 efbd f0f5 f03d c53d 103e
000001f0: 35bc 2c3d 660a 0f3d 69a6 8d3d d68a 543d
00000200: 6020 29be c2da dd3d ad78 843d f681 e9bd
00000210: d0f9 903b 14fa fb3d ff37 c8bd 5938 0bbc
00000220: 48d5 b8bc c0e8 9cbb 8fb4 dcbd 4a8e 23be
00000230: 6df9 04bd 1ddd cfbd 27fa 1a3d 28b3 1e3e
00000240: 354a 193d f808 dbbd 2f92 5bbd b076 e5bd
00000250: cd46 0f3c 1785 6dbc 25f8 ee3d 34ec 4b3e
00000260: 5d03 bd3d c5dd 153e e953 c4bc 4852 273e
00000270: c881 23be de1f ea3d afcf b73d 4d0b e63d
00000280: 7807 3abe 6ebf 6a3d 4942 c1bc 4df0 2bbe
00000290: 2987 c93d c2dd 9e3d 89a5 4b3d 02ba 103d
000002a0: a30a 9fbd ff32 eebc c4d4 cdbd 9601 91bc
000002b0: 46a5 0dbe 5b5b d73d 8974 083e 5a8b 2e3d
000002c0: 51a5 07be 3994 c23d 7bce c7bd e208 c7bd
000002d0: 37fe 483e 7a7c e23c 734f acbd d39d 353e
000002e0: 8f17 12be 7658 24bd 6adf 8bbd 6541 d6ba
000002f0: 390b b5bc 6a9a b5bc 402e 21bd 1d5a 1bbd
00000300: 4ccb 1b3e 7358 af3c a85a a1bd 7a9c e43d
00000310: 8236 23be 3f8a 8b3d 6c9c 4c3e cb3c 153c
00000320: 5e22 f73d 2c10 993d b6f4 b83b 23ae bfbd
00000330: 1c23 dbbd 8ffe d4bd f66a c13d 41a4 2e3d
00000340: f326 353e e9d6 093e 8e49 843d 8b1d e2bc
00000350: a788 423e d627 203e b250 b83d 590f 2dbc
00000360: 08f1 5c3e 5f9b 713d d4d3 bfbd 94f9 103e
00000370: ba46 883d f5e6 193d 4e87 2d3d a114 17bd
00000380: 31cd 12be f559 0ebd 871d b83d 49fb e33d
00000390: d0e3 c13d 53f2 a93d 6bfc 623d 5d18 adbb
000003a0: c9e7 0e3d e3fa 993b 4484 913d 5dd9 eebc
000003b0: 975b a73c 2645 b83d 774e dcbd 48cf 513e
000003c0: ff52 ee3d 3d82 34be 4a88 5abd e98a 603d
000003d0: f8bd d03d 2e65 08bd 5b58 2cbd 7f4f e23d
000003e0: 1e9d 4ebc 3811 503d cb26 0dbe 8794 e53c
000003f0: 0c27 f43d 4a1e 6d3d d153 9fbd a37c 933b

label_emb.weight f4 [2, 4]
-1.1132662 0.6821407 -1.450041 0.64936125 -0.2586159 1.083942 -1.3103082 -0.4787657
00000000: 827f 8ebf c6a0 2e3f f29a b9bf 8a3c 263f
00000010: 4e69 84be 9dbe 8a3f 2eb8 a7bf c720 f5be

across_lstm.weight_ih_l0 f4 [256, 68]
0.055056404 0.013367304 0.018387718 -0.024616826 0.15992473 -0.09803494 -0.064718515 -0.049797714
0.13159378 -0.032723594 -0.014165682 -0.06748639 0.104169905 -0.113859795 -0.05846695 -0.15440984
0.0037136215 -0.1158889 0.011617054 0.012385086 0.013519476 -0.013217283 0.0064761974 -0.116762064
0.00059040036 0.14488144 -0.013711262 0.0077503533 -0.04965181 0.10937678 0.13683401 0.01589862
0.055888414 0.036030833 0.012447879 0.018972784 -0.14242066 0.057102993 -0.061286174 -0.047890257
-0.03270533 -0.08971072 -0.04077752 0.08991774 -0.021259556 0.06390648 0.09758708 0.1622277
-0.055928055 -0.031481795 0.0936652 -0.057907153 -0.14362486 -0.032103047 0.035259925 0.062411174
-0.11180774 -0.07642917 0.06198335 -0.089792415 0.09616131 -0.017727721 -0.019903438 -0.07497642
0.14491858 -0.10724151 -0.057957873 0.015471333 0.04212204 0.043311927 0.11088052 -0.08710076
-0.13274719 0.009896718 -0.19653039 -0.110194236 -0.010237975 -0.006855477 0.09186068 0.0019330973
0.076161675 0.09546716 0.02070972 -0.058149505 0.005784289 -0.2842132 0.14098082 0.095593125
-0.0055836034 -0.05801056 -0.04735862 0.11863685 0.038435433 -0.022733841 0.14859004 0.118892625
0.04361886 -0.13336691 -0.09433779 0.002819022 0.12111756 -0.108199 0.028473511 0.06430063
-0.121746086 -0.10323112 0.015492833 -0.032315366 0.06893022 -0.06481708 0.03328771 0.06588883
-0.014213767 -0.059203625 -0.21131156 -0.1214933 -0.11009223 0.052730426 0.09551039 -0.08973224
0.039521452 -0.04895698 0.048089407 0.054893658 0.21859278 -0.05847908 -0.10269863 -0.13650694
-0.10141077 -0.10258299 -0.03359953 0.016897412 -0.09479368 0.15685976 0.06776427 0.03562674
0.059120174 0.014206716 -0.030955244 0.11778832 0.0031185003 -0.13002366 0.2067152 -0.13982013
-0.06889337 -0.16012795 -0.009374812 0.094346255 -0.07392926 0.11129659 -0.011185467 0.153007
0.07629132 0.11622686 -0.13246396 -0.010030704 0.08871837 -0.028690198 -0.08310395 -0.0032464901
0.13782243 -0.018930372 0.023663266 -0.021183725 0.075975515 0.009585329 0.12903565 -0.07792148
-0.10123594 0.033479728 0.048201807 0.07381408 0.21072051 0.08685566 -0.23408002 0.030104697
0.045552757 -0.10810699 0.17401844 -0.043454047 0.042498216 0.013269955 -0.022200633 -0.1257694
0.16228649 0.031190058 0.07597144 0.022118533 -0.19512562 0.03748915 0.07454712 -0.07557204
-0.032614812 -0.17595866 0.09233646 0.1091432 0.020927066 0.020435525 -0.11257183 -0.035903208
-0.041770887 0.121706165 0.06969567 -0.062858015 -0.13366826 0.0604509 0.115794815 -0.06308126
0.0795965 -0.046458405 -0.12983921 -0.10878456 -0.0979248 0.020413794 -0.08217358 0.01517722
0.076770894 -0.011685873 0.08260091 -0.07459984 -0.09482232 -0.15521543 0.17924221 0.031118752
-0.05225854 -0.11184314 0.06363602 -0.11808754 0.09118316 -0.044384025 0.013316113 0.12883504
-0.11991537 0.13191898 0.14943606 0.12481893 0.08323368 -0.050426804 -0.04627812 0.06975103
0.05673249 -0.14017284 0.13729441 -0.022132043 -0.071952395 0.033680398 0.10133435 -0.076575816
-0.030548094 0.0006914933 -0.032866415 0.12762369 -0.03915111 -0.07167506 -0.029132271 0.077162944
00000000: d382 613d 8902 5b3c d7a1 963c 3aa9 c9bc
00000010: 4fc3 233e 8bc6 c8bd 248b 84bd b0f8 4bbd
00000020: 85c0 063e 2d09 06bd 2d17 68bc 4e36 8abd
00000030: 0857 d53d 532f e9bd 0a7b 6fbd 9d1d 1ebe
00000040: 3b60 733b 2957 edbd 7555 3e3c d1ea 4a3c
00000050: cb80 5d3c 4e8d 58bc 4836 d43b f320 efbd
00000060: 19c5 1a3a cd5b 143e 33a5 60bc adf6 fd3b
00000070: b25f 4bbd ef00 e03d 371e 0c3e d33d 823c
00000080: 40eb 643d 1195 133d 30f2 4b3c d06c 9b3c
00000090: b9d6 11be d4e4 693d 3607 7bbd 9328 44bd
000000a0: 06f6 05bd 41ba b7bd 5406 27bd cb26 b83d
000000b0: 8528 aebc 67e1 823d bcdb c73d 051f 263e
000000c0: d114 65bd 0ef3 00bd 8ad3 bf3d 0d30 6dbd
000000d0: 6512 13be 7c7e 03bd b66c 103d dca2 7f3d
000000e0: 75fb e4bd e686 9cbd 41e2 7d3d 16e5 b7bd
000000f0: 39f0 c43d ba39 91bc 890c a3bc 3d8d 99bd
00000100: 8965 143e 70a1 dbbd 3c65 6dbd 797b 7d3c
00000110: 2988 2c3d d967 313d 5315 e33d e261 b2bd
00000120: e1ee 07be d825 223c 433f 49be 84ad e1bd
00000130: 2ebd 27bc e9a3 e0bb 7421 bc3d fb5f fd3a
00000140: a7fa 9b3d 4984 c33d 6ea7 a93c 2d2e 6ebd
00000150: 228a bd3b 6484 91be 475d 103e 54c6 c33d
00000160: a9f6 b6bb 7b9c 6dbd 1dfb 41bd e0f7 f23d
00000170: 796e 1d3d 523c babc fd27 183e fa7d f33d
00000180: b1a9 323d 5691 08be 2c34 c1bd 57bf 383b
00000190: 7c0c f83d 7097 ddbd 4841 e93c 0cb0 833d
000001a0: 0356 f9bd d66a d3bd a7d5 7d3c 1e5d 04bd
000001b0: 4a2b 8d3d d1be 84bd b258 083d b9f0 863d
000001c0: dce0 68bc 807f 72bd 0f62 58be 7bd1 f8bd
000001d0: 0978 e1bd dcfb 573d f49a c33d 89c5 b7bd
000001e0: 3fe1 213d 1d87 48bd 66f9 443d 2cd8 603d
000001f0: c9d6 5f3e c387 6fbd a953 d2bd 7ac8 0bbe
00000200: 73b0 cfbd 0817 d2bd a99f 09bd 716c 8a3c
00000210: 3023 c2bd d89f 203e fec7 8a3d 58ed 113d
00000220: ff27 723d 49c3 683c da95 fdbc 013b f13d
00000230: c15f 4c3b ec24 05be 26ad 533e 022d 0fbe
00000240: f817 8dbd 95f8 23be d098 19bc 9c38 c13d
00000250: 3968 97bd 77ef e33d 4043 37bc dead 1c3e
00000260: a03e 9c3d 5908 ee3d a2a4 07be d257 24bc
00000270: fab1 b53d b507 ebbc 6732 aabd 11c3 54bb
00000280: 5321 0d3e de13 9bbc 77d9 c13c 7e89 adbc
00000290: 0d99 9b3d c90b 1d3c ec21 043e 4c95 9fbd
000002a0: ca54 cfbd 0a22 093d 426f 453d d62b 973d
000002b0: 1ec7 573e 61e1 b13d acb2 6fbe 209e f63c
000002c0: 8795 3a3d 3367 ddbd e431 323e dffc 31bd
000002d0: 9c12 2e3d 3a6a 593c 1ade b5bc b2c9 00be
000002e0: 6e2e 263e 4b82 ff3c ea96 9b3d ed31 b53c
000002f0: 03cf 47be 398e 193d 29ac 983d 84c5 9abd
00000300: 1c97 05bd 822e 34be e61a bd3d 7886 df3d
00000310: 3d6f ab3c 6768 a73c 0f8c e6bd 3e0f 13bd
00000320: f317 2bbd 1541 f93d 9abc 8e3d b4bb 80bd
00000330: 55e0 08be 5d9b 773d d525 ed3d bf30 81bd
00000340: 7d03 a33d 2b4b 3ebd 92f4 04be 70ca debd
00000350: cc8c c8bd d43a a73c 9f4a a8bd e0a9 783c
00000360: 0f3a 9d3d 1b76 3fbc aa2a a93d cdc7 98bd
00000370: 3432 c2bd cbf0 1ebe 458b 373e c1ec fe3c
00000380: 0d0d 56bd 040e e5bd 9a53 823d e1d7 f1bd
00000390: 3dbe ba3d 06cc 35bd d32b 5a3c 55ed 033e
000003a0: 3196 f5bd c515 073e c405 193e 11a1 ff3d
000003b0: 6b76 aa3d 568c 4ebd 208e 3dbd a1d9 8e3d
000003c0: 5460 683d 7889 0fbe e896 0c3e 424e b5bc
000003d0: c75b 93bd 75f4 093d 6288 cf3d c8d3 9cbd
000003e0: ff3f fabc 5445 353a ef9e 06bd c9af 023e
000003f0: ea5c 20bd 60ca 92bd cda6 eebc 9b07 9e3d

across_lstm.weight_hh_l0 f4 [256, 64]
0.02748259 0.038105506 0.08891881 0.07070491 0.08745614 0.09917994 0.011271036 0.11498654
-0.028365511 0.1002112 0.050403345 0.04142646 -0.013697819 -0.12409689 0.02324573 -0.0023429557
0.08481209 0.09566714 0.10052637 -0.030731214 0.10973357 -0.06871383 -0.018302413 -0.08789138
0.13593817 -0.03092716 -0.023683483 -0.06267783 0.051663868 -0.0069102533 0.08790289 -0.11853285
-0.1061399 -0.026522925 0.12844522 -0.13401125 0.038274433 -0.06135024 0.032058753 -0.13491133
0.08178508 0.029078199 -0.12133997 0.08361072 -0.04230534 -0.035057876 -0.0843435 0.08727628
0.03226377 -0.078588665 0.103320345 0.017303107 -0.016431484 0.054470744 -0.011169891 0.002185706
0.08202318 -0.11322643 0.07068512 0.08550663 0.0056139817 -0.12176211 0.040568676 0.088630475
-0.11188604 0.10515285 0.008263494 -0.06353425 -0.116100125 -0.08086437 -0.076785274 0.065763354
-0.04057074 -0.09398102 -0.01683986 0.0923777 -0.11020602 -0.018291086 0.010243923 0.028297624
-0.09911901 0.027962726 0.096853435 -0.0791074 0.12825976 0.08002267 -0.088612646 0.047589783
0.062982984 -0.00427201 -0.051919933 -0.16945349 -0.026256276 -0.08329776 -0.039741408 0.040371776
0.06873869 -0.049330782 -0.009016072 -0.036778662 -0.053083565 -0.11409324 -0.093294874 0.044462718
0.05704644 0.09778194 0.054945357 0.04882278 -0.023597693 0.003362233 0.060299978 -0.05248718
0.06337354 0.0006696774 -0.040641993 0.021298833 0.031799443 -0.03047666 0.11696978 0.10376398
0.07798913 0.08074328 -0.06997654 0.08421794 -0.039470218 -0.013964085 0.012763372 -0.029306114
0.11582371 -0.003550875 0.05512406 0.11728131 0.030544402 -0.07466351 0.040627353 -0.13296856
0.037485525 0.06307535 -0.018935343 0.035680685 -0.12313802 0.09198352 0.0065270555 0.013937132
-0.033041243 0.032576434 -0.017501222 -0.00086140767 -0.037256923 0.10296579 0.103735365 -0.06345195
-0.01483296 0.09654169 0.013320033 0.07030948 0.12174016 -0.017256668 -0.042338904 -0.07024631
0.09597979 0.023910474 0.08809581 -0.034172446 -0.10726878 0.04765027 -0.047872983 0.08217871
-0.029009447 0.09552782 0.08382338 -0.032375693 -0.09393302 -0.12951839 -0.076653205 -0.06438981
-0.078044534 0.052855644 0.060582247 0.015663788 0.020442616 -0.02503182 -0.086059324 0.045238554
-0.066716075 -0.08316089 0.021357315 0.012713859 -0.114019305 -0.0075104763 0.023639113 0.038342174
-0.011121888 -0.054186355 0.05255588 -0.06325508 -0.016279949 -0.11806522 0.07456421 -0.04010274
-0.0588555 0.078812286 0.088759996 0.04109706 -0.11793461 0.027486704 -0.10404573 -0.14610532
0.08868118 0.039916895 0.06462832 -0.10133208 -0.055729184 -0.079137035 -0.115810916 -0.11895307
-0.03349228 -0.0030805983 0.06778564 0.11593664 -0.044982266 0.01420448 0.023016183 -0.07838048
0.03550821 0.077525735 -0.055344574 0.015269456 0.058261372 -0.09435802 -0.07790901 -0.091748275
0.027058078 -0.053670496 0.066733055 0.0676783 -0.06405037 0.0071562943 0.026192712 -0.0034908738
-0.027268745 -0.01945307 0.017732736 0.043377288 0.009048928 0.11074044 -0.055085156 0.114681356
0.07345296 -0.11945056 0.07816345 -0.04645975 0.06085963 0.11535462 -0.12257149 -0.0028232376
00000000: 2b23 e13c 8514 1c3d 111b b63d bccd 903d
00000010: 341c b33d da1e cb3d 27aa 383c 107e eb3d
00000020: ca5e e8bc 883b cd3d bd73 4e3d cbae 293d
00000030: d16c 60bc 8326 febd d46d be3c 468c 19bb
00000040: f6b1 ad3d 22ed c33d c5e0 cd3d 07c0 fbbc
00000050: febb e03d d6b9 8cbd f1ee 95bc 6500 b4bd
00000060: 6033 0b3e f55a fdbc dd03 c2bc 3c5d 80bd
00000070: 7e9d 533d 686f e2bb 6e06 b43d 5ac1 f2bd
00000080: e05f d9bd 9b46 d9bc 2587 033e 3f3a 09be
00000090: a7c5 1c3d 644a 7bbd 0a50 033d 3226 0abe
000000a0: f07e a73d 6735 ee3c 1781 f8bd 193c ab3d
000000b0: 5d48 2dbd d998 0fbd 49bc acbd e8bd b23d
000000c0: 0427 043d 18f3 a0bd 9e99 d33d 3fbf 8d3c
000000d0: 529b 86bc b71c 5f3d eb01 37bc 103e 0f3b
000000e0: c5fb a73d 42e3 e7bd 5cc3 903d 1a1e af3d
000000f0: 7ef5 b73b 6a5e f9bd 572b 263d e583 b53d
00000100: 8224 e5bd 615a d73d 9b63 073c 3f1e 82bd
00000110: e7c5 edbd 389c a5bd 9941 9dbd f0ae 863d
00000120: 812d 26bd 1f79 c0bd bff3 89bc 8530 bd3d
00000130: b2b3 e1bd 30d7 95bc 21d6 273c 6bd0 e73c
00000140: e8fe cabd 1612 e53c 185b c63d 0f03 a2bd
00000150: 8756 033e ede2 a33d 8c7a b5bd 81ed 423d
00000160: 39fd 803d 38fc 8bbb ffa9 54bd 3785 2dbe
00000170: 6717 d7bc 0498 aabd e3c7 22bd e05c 253d
00000180: dfc6 8c3d 130f 4abd 26b8 13bc 39a5 16bd
00000190: 276e 59bd b7a9 e9bd 6211 bfbd 8a1e 363d
000001a0: 87a9 693d e641 c83d 620e 613d 65fa 473d
000001b0: f34f c1bc e958 5c3b 1cfd 763d ccfc 56bd
000001c0: fdc9 813d 4a8d 2f3a 3878 26bd e47a ae3c
000001d0: 2240 023d 30aa f9bc da8d ef3d 3682 d43d
000001e0: c4b8 9f3d bc5c a53d dc4f 8fbd 757a ac3d
000001f0: 86ab 21bd 9ec9 64bc 761d 513c 6013 f0bc
00000200: fb34 ed3d ccb5 68bb c4c9 613d 2f31 f03d
00000210: 4138 fa3c 2fe9 98bd de68 263d e928 08be
00000220: 6c8a 193d a62d 813d 4b1e 9bbc e925 123d
00000230: c92f fcbd db61 bc3d e9e0 d53b 9258 643c
00000240: 4156 07bd de6e 053d b95e 8fbc 17d0 61ba
00000250: b79a 18bd badf d23d 3573 d43d 19f3 81bd
00000260: f205 73bc a6b7 c53d 453c 5a3c 6bfe 8f3d
00000270: e852 f93d db5d 8dbc 8f6b 2dbd 4cdd 8fbd
00000280: 0d91 c43d e6df c33c 936b b43d 68f8 0bbd
00000290: bcaf dbbd ee2c 433d 7616 44bd 504d a83d
000002a0: 38a5 edbc 17a4 c33d 98ab ab3d 609c 04bd
000002b0: f55f c0bd 78a0 04be 5bfc 9cbd cede 83bd
000002c0: d0d5 9fbd 297f 583d 1725 783d 5851 803c
000002d0: 4677 a73c 880f cdbc df3f b0bd 104c 393d
000002e0: 70a2 88bd 4250 aabd 89f5 ae3c ca4d 503c
000002f0: f482 e9bd 711a f6bb d0a6 c13c af0c 1d3d
00000300: 9438 36bc 83f2 5dbd d644 573d e18b 81bd
00000310: 875d 85bc 2ecc f1bd 1fb5 983d c542 24bd
00000320: 7712 71bd 5668 a13d cdc7 b53d 6455 283d
00000330: b387 f1bd cc2b e13c ed15 d5bd a29c 15be
00000340: 7a9e b53d e67f 233d da5b 843d 3287 cfbd
00000350: 4944 64bd 9912 a2bd 462e edbd ab9d f3bd
00000360: 332f 09bd dde3 49bb 33d3 8a3d 3070 ed3d
00000370: 533f 38bd e8b9 683c 6f8c bc3c f285 a0bd
00000380: 0f71 113d d0c5 9e3d feb0 62bd be2c 7a3c
00000390: 7aa3 6e3d c73e c1bd c28e 9fbd 85e6 bbbd
000003a0: e7a8 dd3c 98d5 5bbd 57ab 883d ec9a 8a3d
000003b0: d72c 83bd 597f ea3b 1992 d63c 25c7 64bb
000003c0: b462 dfbc 0b5c 9fbc 3e44 913c 62ac 313d
000003d0: f441 143c e2cb e23d f9a0 61bd 0fde ea3d
000003e0: 816e 963d 7fa2 f4bd 2914 a03d 944c 3ebd
000003f0: f347 793d 0b3f ec3d c306 fbbd 1106 39bb

across_lstm.bias_ih_l0 f4 [256]
0.08033575 -0.048756048 0.018636134 -0.10054906 -0.10448482 -0.055104773 -0.074717365 -0.03954296
0.008868904 -0.11961062 0.035525844 0.14765674 -0.061054766 -0.00057949516 -0.049986295 -0.04019439
0.001160844 0.02861235 -0.08545451 0.0660921 0.035120018 0.07226527 -0.017618146 0.06231695
-0.12502047 -0.07884668 -0.011268969 -0.0036092536 -0.12651174 0.07916305 0.041302983 0.063042626
0.024561236 0.09427991 -0.06316529 0.00026875513 0.034700986 0.017734997 0.013917791 0.0018123175
-0.15299879 -0.0034055475 0.0029259198 -0.07161115 0.075460225 -0.15990736 0.043445606 -0.11346501
-0.16627966 0.034777734 -0.0017783514 0.041632283 -0.037546627 0.12421853 0.03996568 0.028328931
-0.022616116 -0.0019459908 0.031834405 -0.015929688 0.13984092 -0.12654743 -0.07276347 -0.07154374
-0.093517035 -0.08223511 -0.113825954 -0.008758116 -0.03404681 -0.08487013 0.021281332 0.05257996
0.0155578675 -0.12205787 0.08151255 0.003319257 -0.053745233 -0.0050582695 0.04402469 -0.055761676
-0.05609273 -0.040688016 -0.13228469 -0.035190694 -0.092174105 0.07009088 -0.05348877 -0.033290558
-0.13335368 0.025876082 -0.12335038 0.008988748 0.025905987 -0.032673188 -0.009930064 -0.031324822
-0.08196142 -0.12872131 0.12536441 -0.085754186 -0.0831401 0.045381367 0.003503964 -0.08386282
-0.059303805 -0.025927212 -0.05444661 -0.058256805 0.008249109 -0.14150155 -0.04959808 0.066452235
0.044488184 -0.018154085 0.060500808 0.09993375 -0.102740385 -0.009850529 -0.028175045 -0.063318186
0.035464942 0.020851297 -0.091059506 -0.091943465 -0.063387334 0.052406926 0.055882674 0.12409264
-0.060488116 -0.101750605 -0.062306777 -0.11048365 0.069514364 -0.042207476 -0.051840153 -0.014237773
-0.062507644 -0.0062297443 0.060965296 -0.1052839 0.023056975 0.059085153 0.084493555 0.00018824704
0.057045426 -0.079812825 0.064193964 0.07363296 0.105921626 0.015513332 -0.005678448 0.10822385
-0.108662784 0.015728954 0.03784192 -0.07207598 0.12990354 0.08662943 0.08166599 0.06700449
0.03285889 0.011504172 0.07174344 0.02394259 0.0030656913 0.012305558 -0.005877544 -0.09127001
0.07035692 0.07523435 0.016742485 0.023778291 -0.019116547 -0.07475337 -0.14515805 -0.103933915
-0.06192893 -0.08385351 0.027103651 0.1152448 -0.060034156 0.072637536 0.047392275 0.09162402
0.049337998 0.06737081 0.10677436 -0.04726869 0.050170507 0.08762122 -0.09348799 -0.06569163
0.030432131 -0.00416708 -0.06346438 -0.033194963 0.014082654 0.0064072297 -0.07967517 -0.109305955
-0.14997348 0.12912647 0.029118296 0.0184921 0.09717502 0.06361944 0.007697293 -0.018027462
-0.04404775 -0.09231691 0.09734471 -0.098509975 0.0062357965 0.052810483 -0.10857217 -0.010129669
0.0062398743 0.06427382 -0.055357642 -0.0022591872 -0.0004253379 0.0065816105 0.13676624 0.052466754
0.10043574 0.15326999 -0.00046454824 0.07708915 0.049350772 -0.03297872 0.031133866 0.036001474
0.019383514 -0.022213442 -0.10402764 -0.065350786 0.04709616 -0.12651156 0.012082398 -0.026797138
0.06559 0.11424028 0.13306375 0.031121148 -0.079586454 0.10097746 0.11563537 0.09409069
-0.053678565 -0.11091604 -0.14514166 0.08094449 0.0523274 -0.11862918 0.060323548 0.08157613
00000000: 1287 a43d 6cb4 47bd ceaa 983c aaec cdbd
00000010: 23fc d5bd 8bb5 61bd 6b05 99bd ccf7 21bd
00000020: e14e 113c 6af6 f4bd 8c83 113d 5433 173e
00000030: 9014 7abd 43e9 17ba 6ebe 4cbd dfa2 24bd
00000040: 7627 983a 7264 ea3c c602 afbd 4c5b 873d
00000050: 02da 0f3d d0ff 933d ee53 90bc 0f40 7f3d
00000060: 5e05 00be 5e7a a1bd 7ba1 38bc 3a89 6cbb
00000070: 4b8c 01be 3d20 a23d 512d 293d 7e1c 813d
00000080: a534 c93c d315 c13d ce5c 81bd b4e7 8c39
00000090: 9f22 0e3d fc48 913c 7207 643c 498b ed3a
000000a0: b7ab 1cbe 9b2f 5fbb cac0 3f3b dea8 92bd
000000b0: e48a 9a3d c1be 23be 05f4 313d 5860 e8bd
000000c0: 3745 2abe 1973 0e3d 9217 e9ba 9d86 2a3d
000000d0: 7eca 19bd 4966 fe3d 0eb3 233d 1312 e83c
000000e0: 6f45 b9bc 9e10 ffba cb64 023d fa7e 82bc
000000f0: 7532 0f3e a695 01be 0405 95bd 8685 92bd
00000100: dc85 bfbd e26a a8bd 951d e9bd 337e 0fbc
00000110: ab74 0bbd 64d0 adbd 3056 ae3c 165e 573d
00000120: 6de6 7e3c 7af9 f9bd 0df0 a63d e487 593b
00000130: f623 5cbd d7bf a5bb 3c53 343d 5b66 64bd
00000140: 7ec1 65bd 7aa8 26bd a375 07be 1e24 10bd
00000150: c7c5 bcbd cf8b 8f3d 0a17 5bbd ae5b 08bd
00000160: de8d 08be 14fa d33c 209f fcbd 8b45 133c
00000170: cb38 d43c 52d4 05bd b5b1 22bc 754e 00bd
00000180: 64db a7bd 85cf 03be 875f 003e e49f afbd
00000190: 5b45 aabd d0e1 393d c3a2 653b 45c0 abbd
000001a0: 8ce8 72bd 4e65 d4bc 6903 5fbd b09e 6ebd
000001b0: 4527 073c c8e5 10be 5b27 4bbd 1c18 883d
000001c0: 3e39 363d e0b7 94bc b2cf 773d 11aa cc3d
000001d0: 8d69 d2bd 1d64 21bc 5acf e6bc f7ac 81bd
000001e0: b043 113d 57d0 aa3c 687d babd db4c bcbd
000001f0: 38d1 81bd a5a8 563d 3be5 643d 4824 fe3d
00000200: 63c2 77bd 9f62 d0bd 6435 7fbd 4045 e2bd
00000210: 8c5d 8e3d bfe1 2cbd 5756 54bd 8c45 69bc
00000220: 0204 80bd e222 ccbb bfb6 793d 169f d7bd
00000230: fbe1 bc3c 4603 723d f50a ad3d 2e64 4539
00000240: 77a8 693d e874 a3bd 2078 833d e1cc 963d
00000250: 70ed d83d a12b 7e3c 4612 babb 77a4 dd3d
00000260: 988a debd 02da 803c 2100 1b3d 929c 93bd
00000270: 6f05 053e c56a b13d 8040 a73d a639 893d
00000280: 0b97 063d ff7b 3c3c 3aee 923d 4023 c43c
00000290: c4e9 483b 409d 493c 6a98 c0bb c5eb babd
000002a0: 4a17 903d 7814 9a3d 8927 893c b1ca c23c
000002b0: 4e9a 9cbc 4b18 99bd 50a4 14be 4edb d4bd
000002c0: 31a9 7dbd 64bb abbd 7a08 de3c 7705 ec3d
000002d0: 60e6 75bd fdc2 943d 671e 423d 60a5 bb3d
000002e0: a416 4a3d b5f9 893d 84ac da3d d09c 41bd
000002f0: 977f 4d3d c172 b33d a276 bfbd 5589 86bd
00000300: ce4c f93c 008c 88bb 9df9 81bd 71f7 07bd
00000310: efba 663c bdf3 d13b bc2c a3bd cddb dfbd
00000320: a692 19be bb39 043e 7e89 ee3c bf7c 973c
00000330: b203 c73d e94a 823d 9339 fc3b 54ae 93bc
00000340: 6a6b 34bd a610 bdbd aa5c c73d 99bf c9bd
00000350: a755 cc3b ce4f 583d 165b debd e9f6 25bc
00000360: dc77 cc3b fea1 833d b2be 62bd df0e 14bb
00000370: e3ff deb9 8daa d73b 730c 0c3e 61e7 563d
00000380: 41b1 cd3d cff2 1c3e 9c8e f3b9 ebe0 9d3d
00000390: 0924 4a3d b214 07bd 730c ff3c 4876 133d
000003a0: 2dca 9e3c f7f8 b5bc 710c d5bd a2d6 85bd
000003b0: e7e7 403d 3f8c 01be 40f5 453c ac85 dbbc
000003c0: 0d54 863d cff6 e93d dd41 083e c7f1 fe3c
000003d0: 39fe a2bd 45cd ce3d 3dd2 ec3d 9fb2 c03d
000003e0: 0ede 5bbd f327 e3bd 04a0 14be 3ac6 a53d
000003f0: 4155 563d dbf3 f2bd d315 773d 6311 a73d
