main_scripts/models_HierGenderFamilies/Women/model.pth (torch, 262503 bytes, 93 tensors)

season_lstm.weight_ih_l0 f4 [256, 3]
-0.012841442 -0.03870576 -0.1988067 0.113066755 0.01224416 0.06544489 0.19200704 -0.11854046
0.20172168 -0.079917714 -0.021313258 -0.077462904 0.29616576 0.101867914 -0.012165021 -0.11994895
0.032471962 -0.088163316 0.07810692 -0.007583626 -0.013537401 0.13414168 -0.07097368 -0.022421923
-0.074023195 -0.019256772 0.08774267 0.05548587 -0.05036217 0.0728513 -0.14333487 -0.075984165
0.13876283 -0.12504074 0.02463787 0.040155064 -0.0072170743 0.09930289 -0.056900825 0.11731281
-0.017344939 0.040429324 0.18137348 0.036044143 0.08721192 0.011183659 -0.06531133 0.057620335
-0.1358584 -0.046351235 0.06612866 0.09523667 0.15529726 -0.1487202 -0.00061854295 0.021397566
-0.10823753 0.24172924 0.09974474 -0.051900987 -0.00399599 -0.18543991 -0.0051599797 -0.089220606
-0.06197728 -0.04335401 -0.061559718 -0.02585366 -0.07036463 0.29456583 0.05378116 0.0660971
0.02475911 -0.093835495 0.09220918 0.20309696 -0.046060976 -0.08608253 -0.055291936 -0.062140092
0.056785025 0.0050713182 -0.0028716647 0.1288949 -0.10776564 -0.11201641 -0.017681362 0.12541081
0.02279516 0.14418209 -0.07916447 -0.07932946 0.012874154 0.12531212 -0.07245588 0.16021444
-0.0115929935 -0.0070577334 0.03210868 0.10858811 -0.11533562 -0.020658093 0.03800905 -0.054856803
-0.09433897 0.034659863 0.08813809 0.10057408 0.082482904 0.051769562 -0.0045954455 -0.01827976
-0.07165788 -0.021636564 0.024138082 0.04067803 0.010484427 -0.041247074 -0.06714031 -0.03520212
-0.050426006 -0.03692866 0.048741817 0.03573992 -0.00033000315 -0.11058598 -0.10320969 -0.09590602
0.026147025 -0.079503514 -0.12513907 0.1442602 0.027177813 -0.02618423 0.003227295 -0.11911312
-0.027759548 0.06703263 0.13343808 0.05792731 0.07025584 -0.02229527 -0.034651585 0.02008983
0.06084952 -0.08330618 0.07312773 0.10116322 0.034868155 -0.119053155 0.29996458 0.08596999
0.011167033 -0.11619264 0.0036452292 -0.051656146 0.02193235 -0.008308937 0.011345167 -0.13027705
0.0555131 -0.07196879 -0.03980263 0.039134294 0.054610223 -0.09514155 -0.065962486 0.105210535
0.010271247 0.010376826 0.07160262 -0.109314635 0.009121617 0.08491079 0.012115935 0.051432885
-0.09006085 0.04406146 -0.016054126 0.080962375 0.16365364 -0.13681252 0.02759934 0.09357953
-0.15224163 -0.12911434 0.1737723 0.005255297 0.028073607 -0.13237551 -0.044885136 -0.020723749
0.13308002 0.13920389 -0.005263538 0.105210915 0.019790126 0.036792066 0.019995278 -0.035598222
-0.024868412 -0.11003962 0.035376452 -0.007926911 0.06088716 0.048652552 0.03013879 -0.0016846766
-0.031406634 0.08103342 -0.034553077 0.07957613 0.12753676 0.04151836 -0.042207334 -0.056825932
-0.05745561 0.04490536 0.077961594 0.015762953 0.056177143 0.03543612 0.04961027 0.035943355
0.0023921642 0.16912383 -0.01844836 -0.052020535 0.057448138 -0.01996044 -0.0012391114 -0.058752526
0.09423563 0.084419385 -0.11614485 0.035063844 0.04063867 -0.013052186 0.010051799 -0.08513825
-0.046496432 0.04108266 -0.012952435 0.13779227 0.0063357954 -0.24021402 0.07010395 -0.042626027
0.06968402 0.1804895 0.0889616 0.041799597 -0.010339052 0.2365986 -0.028317219 0.006689638
00000000: e964 52bc ee89 1ebd fc93 4bbe 8b8f e73d
00000010: bb9b 483c f807 863d 7e9d 443e 57c5 f2bd
00000020: 2190 4e3e e6ab a3bd 2499 aebc dfa4 9ebd
00000030: 0aa3 973e 20a0 d03d cc4f 47bc cca7 f5bd
00000040: 5201 053d f88e b4bd 85f6 9f3d 1180 f8bb
00000050: facb 5dbc 705c 093e a65a 91bd 2eae b7bc
00000060: 7999 97bd 61c0 9dbc 6eb2 b33d 2745 633d
00000070: 9048 4ebd 1033 953d 60c6 12be 969d 9bbd
00000080: d817 0e3e ae0a 00be 5cd5 c93c a379 243d
00000090: 357d ecbb 505f cb3d d710 69bd b341 f03d
000000a0: f916 8ebc 3899 253d f8b9 393e 06a3 133d
000000b0: 2a9c b23d aa3b 373c f2c1 85bd 4d03 6c3d
000000c0: 771e 0bbe cbda 3dbd 776e 873d 710b c33d
000000d0: 3f06 1f3e 1c4a 18be b725 22ba f349 af3c
000000e0: a3ab ddbd df87 773e f846 cc3d 2196 54bd
000000f0: cbf0 82bb f6e3 3dbe 0c15 a9bb 4bb9 b6bd
00000100: e3db 7dbd f993 31bd 0b26 7cbd 0ecb d3bc
00000110: 551b 90bd 55d1 963e a249 5c3d eb5d 873d
00000120: 9ed3 ca3c d32c c0bd 2bd8 bc3d a6f8 4f3e
00000130: 6faa 3cbd 0a4c b0bd cc79 62bd 9c86 7ebd
00000140: 6a97 683d 4d2d a63b 8a32 3cbb 06fd 033e
00000150: 3bb4 dcbd dc68 e5bd 81d8 90bc b16b 003e
00000160: eabc ba3c 78a4 133e fb20 a2bd 7c77 a2bd
00000170: 1eee 523c d251 003e c063 94bd 410f 243e
00000180: 8af0 3dbc 8f44 e7bb 6484 033d 7163 de3d
00000190: 1535 ecbd 293b a9bc 61af 1b3d 87b1 60bd
000001a0: ca34 c1bd 80f7 0d3d be81 b43d c9f9 cd3d
000001b0: ccec a83d 520c 543d 6495 96bb 6fbf 95bc
000001c0: 5ec1 92bd 2a3f b1bc 3abd c53c 029e 263d
000001d0: e0c6 2b3c b1f2 28bd dc80 89bd 1930 10bd
000001e0: 808b 4ebd 8242 17bd 80a5 473d 0664 123d
000001f0: 4604 adb9 e77a e2bd 9a5f d3bd 606a c4bd
00000200: 4932 d63c bdd2 a2bd 7524 00be f2b8 133e
00000210: 01a4 de3c 4f80 d6bc 0681 533b 94f1 f3bd
00000220: fe67 e3bc 6748 893d fea3 083e 3045 6d3d
00000230: 4be2 8f3d 92a4 b6bc d2ee 0dbd 6d93 a43c
00000240: 593d 793d 6e9c aabd fec3 953d aa2e cf3d
00000250: e9d1 0e3d 24d2 f3bd f594 993e 0911 b03d
00000260: eef5 363c 68f6 edbd cce4 6e3b 6595 53bd
00000270: 79ab b33c 3522 08bc 14e1 393c 5967 05be
00000280: b461 633d 5f64 93bd 1508 23bd 484b 203d
00000290: f8ae 5f3d 93d9 c2bd 5717 87bd 9f78 d73d
000002a0: bb48 283c 9003 2a3c 65a4 923d 5ae0 dfbd
000002b0: d672 153c b5e5 ad3d ea81 463c 4aab 523d
000002c0: d371 b8bd ca79 343d f183 83bc 9acf a53d
000002d0: d294 273e 9518 0cbe 0318 e23c a0a6 bf3d
000002e0: 3be5 1bbe 8d36 04be 5ef1 313e a034 ac3b
000002f0: 9ffa e53c 728d 07be 7ad9 37bd dac4 a9bc
00000300: 2146 083e 778b 0e3e c279 acbb d278 d73d
00000310: e71e a23c 47b3 163d 23cd a33c 71cf 11bd
00000320: d7b8 cbbc 745c e1bd e6e6 103d e0df 01bc
00000330: d164 793d e647 473d a0e5 f63c 5ed0 dcba
00000340: 3ea4 00bd daf4 a53d 8787 0dbd cff8 a23d
00000350: ff98 023e 280f 2a3d 99e1 2cbd 4fc2 68bd
00000360: 9356 6bbd afee 373d 54aa 9f3d 4f21 813c
00000370: 011a 663d 7725 113d 2334 4b3d 5739 133d
00000380: dbc5 1c3b cc2e 2d3e 0421 97bc 7c13 55bd
00000390: bd4e 6b3d 1484 a3bc ae69 a2ba 7da6 70bd
000003a0: 9cfe c03d 12e4 ac3d 5add edbd 1b9f 0f3d
000003b0: bc74 263d d6d8 55bc 4db0 243c f65c aebd
000003c0: 0b73 3ebd 4b46 283d 7336 54bc 6b19 0d3e
000003d0: 819c cf3b aafa 75be a992 8f3d a198 2ebd
000003e0: 7fb6 8e3d 3dd2 383e 8031 b63d 0e36 2b3d
000003f0: 2165 29bc e746 723e 83f9 e7bc c034 db3b

season_lstm.weight_hh_l0 f4 [256, 64]
-0.15268996 0.04132002 0.15153544 -0.12072411 0.03245864 -0.05324592 -0.091920234 -0.117256306
-0.04323115 0.10523648 -0.12915836 0.062422447 0.16360477 0.026507013 0.03370598 -0.10651428
-0.12986222 0.10461297 0.02499516 -0.15420906 -0.018777948 0.12020532 -0.011596697 0.11309485
-0.048219293 0.056989037 -0.06508827 0.022748906 0.04731247 0.01651445 0.18648916 -0.020894721
-0.12103834 0.030317347 0.058477465 0.095390625 -0.1581498 -0.06068661 -0.13845815 0.1416021
-0.08379564 0.017485984 0.07267031 -0.030908348 -0.06936473 0.035859656 0.07493623 -0.05749309
0.12448799 -0.042974234 -0.06884763 -0.0432137 0.076610014 0.12648655 -0.043188028 0.08972261
-0.039739475 -0.1124688 0.044650484 -0.07908518 -0.03403529 -0.11533598 0.13739134 0.06264877
-0.029983195 0.04332393 0.05133629 0.06516271 -0.054848824 0.087587036 -0.1508399 -0.045378726
-0.047243524 -0.16648296 0.031690706 0.06201316 0.10886948 -0.12614101 -0.0028294793 -0.058068924
0.059721168 -0.005082752 0.026544712 -0.002272531 -0.14587097 0.061347138 -0.17429778 -0.14231686
-0.10469884 0.17199849 -0.24562539 -0.011331613 0.06853063 0.06853864 -0.017590178 -0.06907021
0.004715978 0.03974608 0.01522454 0.13623933 -0.17671926 -0.120546594 -0.0067934603 -0.016183522
0.13307965 -0.09723429 0.08187059 0.047586434 0.21704291 0.074257 0.15287142 0.07006139
0.1804353 0.21078035 0.057827532 0.029115774 0.019492598 0.18390977 -0.18767011 -0.11462677
0.028440682 -0.049089234 -0.04650194 0.054501157 -0.021989418 -0.19316082 -0.17098472 0.2172355
0.042712387 -0.021219295 0.077093914 -0.1317396 0.18024075 -0.03402913 -0.007345011 0.035442427
0.05527293 0.057113647 -0.18068576 -0.050515585 -0.029839616 -0.019496815 -0.0024527588 -0.11528841
-0.12379887 0.016119676 0.08894841 -0.0032786394 -0.102781504 0.10579015 0.089828245 0.038740933
-0.037285507 -0.1257275 0.06304981 -0.07064359 -0.17802787 -0.033612646 -0.07444996 0.19315845
-0.00054696476 -0.052141327 -0.03682268 -0.18440759 0.09703404 -0.05228706 0.05669596 -0.102124706
-0.09350622 0.06728483 -0.03304869 -0.18610173 0.030249678 -0.060899887 -0.12682252 0.06616837
-0.047431592 -0.018370098 -0.026675152 -0.050372563 -0.019121202 0.07110907 0.07866665 0.0743621
0.008642129 -0.112997 0.018814523 0.016260723 -0.1142678 0.2200299 0.073491715 -0.16960745
0.019322542 0.018460667 -0.12210565 -0.010988347 0.038808297 0.0067741885 0.0013805532 -0.024052823
0.12383847 0.13812478 0.011173175 -0.014680039 -0.07482412 -0.0020699468 -0.040551532 0.0733209
-0.016460566 -0.021382391 -0.08946817 0.067899175 0.06012434 -0.028061321 0.02920738 0.076284684
0.057769023 0.094545916 0.0043457607 -0.0036683138 -0.08865196 0.0018281112 -0.031947024 0.04927928
-0.10856891 -0.04740722 0.021752274 0.06905223 -0.018068964 0.0031224326 -0.122057095 0.050462566
-0.02789163 -0.09849728 -0.016449636 -0.13744548 -0.12937123 -0.11688897 -0.051562093 0.02482282
0.07864423 0.10577681 0.005139742 -0.057235736 0.064863466 -0.0918517 0.019335734 -0.167258
0.026854979 -0.013400993 0.0514969 0.05492803 -0.058213662 -0.0394069 -0.04298327 0.015720943
00000000: c25a 1cbe 2e3f 293d 1b2c 1b3e 343e f7bd
00000010: 5af3 043d 6518 5abd ad40 bcbd 1324 f0bd
00000020: 2513 31bd 3986 d73d 1742 04be aeae 7f3d
00000030: 0288 273e 3c25 d93c 480f 0a3d 2924 dabd
00000040: 9afa 04be 533f d63d a6c2 cc3c fbe8 1dbe
00000050: 36d4 99bc 352e f63d 1300 3ebc 469e e73d
00000060: 9881 45bd 566d 693d 004d 85bd ea5b ba3c
00000070: b8ca 413d 5049 873c 04f7 3e3e 682b abbc
00000080: f3e2 f7bd 165c f83c 1186 6f3d 295c c33d
00000090: 05f2 21be 8692 78bd f9c7 0dbe 2400 113e
000000a0: 0c9d abbd c43e 8f3c 2cd4 943d 8133 fdbc
000000b0: 180f 8ebd 93e1 123d 2b78 993d e07d 6bbd
000000c0: 8ff3 fe3d c005 30bd fcff 8cbd d900 31bd
000000d0: b6e5 9c3d b185 013e eee5 30bd 7dc0 b73d
000000e0: dcc5 22bd 0b56 e6bd 6de3 363d 69f7 a1bd
000000f0: 9768 0bbd 4535 ecbd 51b0 0c3e 004e 803d
00000100: 519f f5bc 6f74 313d 0046 523d 0774 853d
00000110: 29a9 60bd d560 b33d c675 1abe 0bdf 39bd
00000120: 6d82 41bd 827a 2abe 1dce 013d 8301 7e3d
00000130: f6f6 de3d 1c2b 01be c96e 39bb aed9 6dbd
00000140: 2f9e 743d 378d a6bb 4c74 d93c beee 14bb
00000150: 335f 15be 2347 7b3d 1e7b 32be 83bb 11be
00000160: 586c d6bd 5f20 303e 3985 7bbe 3ba8 39bc
00000170: c959 8c3d fd5d 8c3d 4719 90bc af74 8dbd
00000180: 7e88 9a3b c9cc 223d 5970 793c 5382 0b3e
00000190: e5f5 34be 22e1 f6bd ad9b debb 4e93 84bc
000001a0: 0846 083e c522 c7bd c5ab a73d fee9 423d
000001b0: 7f40 5e3e 0e14 983d 538a 1c3e 597c 8f3d
000001c0: 08c4 383e ced6 573e 90dc 6c3d 3484 ee3c
000001d0: f1ae 9f3c d852 3c3e 982c 40be 71c1 eabd
000001e0: 6ffc e83c cb11 49bd d178 3ebd 9b3c 5f3d
000001f0: 2723 b4bc f3cb 45be 9e16 2fbe fc72 5e3e
00000200: 2ff3 2e3d 16d4 adbc 6ae3 9d3d bfe6 06be
00000210: 0891 383e 2162 0bbd 6bae f0bb 142c 113d
00000220: de65 623d 00f0 693d b005 39be 6ee9 4ebd
00000230: 3672 f4bc c9b7 9fbc 77be 20bb 541c ecbd
00000240: 438a fdbd 690d 843c 952a b63d 71de 56bb
00000250: 1c7f d2bd 82a8 d83d dff7 b73d d0ae 1e3d
00000260: b0b8 18bd b6be 00be 4220 813d 96ad 90bd
00000270: f04c 36be 6aad 09bd 3879 98bd 54cb 453e
00000280: 2f62 0fba 2592 55bd 61d3 16bd 58d5 3cbe
00000290: c8b9 c63d f52a 56bd 063a 683d c226 d1bd
000002a0: 3080 bfbd a1cc 893d 105e 07bd 7491 3ebe
000002b0: 2cce f73c 2972 79bd c3dd 01be 4883 873d
000002c0: a147 42bd e37c 96bc d985 dabc 7653 4ebd
000002d0: 11a4 9cbc a2a1 913d fb1b a13d 284b 983d
000002e0: b797 0d3c f96a e7bd ea20 9a3c 3535 853c
000002f0: 3c05 eabd 854f 613e d382 963d 93ad 2dbe
00000300: 4f4a 9e3c d33a 973c 8712 fabd 7808 34bc
00000310: 73f5 1e3d 03fa dd3b aef3 b43a 6d0a c5bc
00000320: 069f fd3d 9570 0d3e b10f 373c 8c84 70bc
00000330: 633d 99bd f2a7 07bb 5d19 26bd 4529 963d
00000340: 4fd8 86bc 202a afbc 173b b7bd b90e 8b3d
00000350: f144 763d dbe0 e5bc 5144 ef3c 253b 9c3d
00000360: 369f 6c3d 4aa1 c13d e266 8e3b 1868 70bb
00000370: 298f b5bd 3c9d ef3a e2da 02bd 12d9 493d
00000380: 6059 debd 132e 42bd d331 b23c 416b 8d3d
00000390: 5d05 94bc baa1 4c3b 12f9 f9bd d6b1 4e3d
000003a0: fd7c e4bc f1b8 c9bd 63c1 86bc 82be 0cbe
000003b0: e479 04be 7c63 efbd c632 53bd 3a59 cb3c
000003c0: 3a10 a13d 83a1 d83d 486b a83b 0570 6abd
000003d0: 23d7 843d be1c bcbd f965 9e3c ae45 2bbe
000003e0: f9fe db3c d78f 5bbc 6aee 523d 37fc 603d
000003f0: 7371 6ebd 2169 21bd 3a0f 30bd 35c9 803c

season_lstm.bias_ih_l0 f4 [256]
-0.01181157 -0.021032605 0.054417875 0.05241255 0.16864246 -0.053921126 -0.026368631 0.020878788
0.10534357 0.023979362 0.13261563 -0.0058926465 0.009263506 -0.09772903 0.017752046 0.15395254
0.0739471 0.04118612 -0.042916402 0.07120969 0.11466176 0.16920395 0.07379833 0.052984223
-0.03604599 0.11535385 0.11687627 -0.17302291 -0.10911413 -0.028100178 0.0068472624 0.08068464
0.14726932 0.024679098 -0.042192232 0.20127952 -0.0017381833 0.20438863 -0.19178826 0.111249946
0.018457754 -0.15108974 -0.010346558 0.07453105 -0.1252887 0.11041664 -0.040283274 0.12816367
-0.11536735 0.087010115 0.059957746 0.08430523 -0.15294617 0.14318158 -0.018978963 0.08982766
-0.07038397 0.032873362 -0.092385024 -0.10714581 -0.1002507 0.037338655 0.07720118 -0.08120802
0.03667312 0.09934747 0.10489015 0.017466865 0.13419373 -0.034852196 -0.07206517 -0.093210824
0.029677756 -0.08632316 0.20158254 -0.050917666 -0.12383634 0.031411324 0.109837666 -0.064419635
0.003974537 0.062335916 0.06469537 0.104166545 0.084017135 -0.011891811 -0.090400174 0.15725254
0.041469175 0.03356628 -0.1284774 0.079915196 -0.129747 0.08739031 -0.009317208 -0.05202657
-0.08642796 0.11029347 -0.08883275 -0.048237193 -0.0028520627 0.044086087 -0.1294247 0.010794342
-0.024616182 -0.08018979 0.04218751 0.026423562 -0.043647878 -0.01820106 -0.0079560755 0.025648294
0.06565258 -0.024994982 0.038170274 0.11111767 -0.041869216 -0.03414679 -0.058917057 -0.02629211
0.04750569 -0.104100615 -0.016118323 0.103072144 0.102821335 0.12903386 0.15509173 0.020386431
0.01316414 0.17688528 -0.05019318 -0.04806814 -0.08896477 -0.18263681 -0.005021421 -0.20521463
0.098907165 0.16441794 0.14324465 -0.0995119 -0.04097233 0.010933205 -0.09507655 0.05931149
-0.004607376 0.118234746 -0.03925402 0.049841583 0.16363575 -0.11377836 -0.10845302 0.02422937
-0.09917111 0.18684831 -0.13292985 0.07631136 -0.038747888 -0.079409085 0.17890286 -0.014326111
-0.049643185 -0.08548906 0.03695126 -0.00430788 -0.052587453 -0.18268827 -0.05633955 0.07742636
-0.025473949 0.16724136 -0.07900007 -0.1434233 -0.058183804 -0.037631776 0.1350133 0.16904752
-0.05776777 -0.17724389 -0.07120929 0.035134334 0.01945248 0.115035884 -0.15336676 -0.16442856
0.06438467 0.06984672 -0.13570759 -0.06180842 0.16736983 -0.18267635 -0.0694777 -0.0942769
-0.102022626 0.08293597 -0.031602286 -0.09270617 -0.054323837 0.028324548 -0.1263031 0.12855253
0.049541477 -0.15682775 0.1855947 0.15816903 0.014261934 -0.009868855 0.022054935 0.054221753
0.13514446 0.058808275 -0.057651438 0.109033525 0.109392606 0.17360716 -0.043826945 -0.05969355
-0.017848987 0.12663457 0.0938615 -0.08492006 -0.060301278 0.05586709 0.21697615 0.1595757
-0.016560411 0.039062623 0.03881081 0.111770526 -0.0103315115 0.08083435 0.10428013 -0.032220278
-0.009680297 -0.055225734 0.17301033 -0.05198898 -0.08796615 -0.08596144 -0.034385633 0.015436217
-0.07899947 -0.08730584 0.10092488 0.12631914 0.058287013 -0.0073052016 -0.113504104 0.06835095
0.09134454 -0.0073984684 -0.028752932 0.028788673 0.24996386 0.11706605 0.07555881 0.0074564083
00000000: 5185 41bc 924c acbc 47e5 5e3d 8bae 563d
00000010: 9cb0 2c3e 66dc 5cbd 0703 d8bc fe09 ab3c
00000020: 5fbe d73d 5e70 c43c 64cc 073e 1a17 c1bb
00000030: f6c5 173c 2826 c8bd bd6c 913c bca5 1d3e
00000040: 9471 973d c7b2 283d 1cc9 2fbd 63d6 913d
00000050: c9d3 ea3d cd43 2d3e 9423 973d fc05 593d
00000060: f6a4 13bd a43e ec3d d35c ef3d eb2c 31be
00000070: 3b77 dfbd 5832 e6bc 005f e03b fd3d a53d
00000080: c5cd 163e d22b ca3c c3d1 2cbd 381c 4e3e
00000090: c1d3 e3ba 414b 513e 2464 44be 03d7 e33d
000000a0: b734 973c 45b7 1abe 9c84 29bc bca3 983d
000000b0: ae4b 00be 1f22 e23d 1300 25bd 563d 033e
000000c0: b845 ecbd 5c32 b23d 4196 753d 38a8 ac3d
000000d0: ec9d 1cbe 319e 123e c579 9bbc 90f7 b73d
000000e0: 7925 90bd 38a6 063d 5c34 bdbd 436f dbbd
000000f0: 3d50 cdbd 6bf0 183d a71b 9e3d 6450 a6bd
00000100: 8e36 163d b076 cb3d a6d0 d63d ac16 8f3c
00000110: 156a 093e 2dc1 0ebd e796 93bd 51e5 bebd
00000120: c41e f33c 32ca b0bd a76b 4e3e 0b8f 50bd
00000130: e89d fdbd 29a9 003d 92f2 e03d 71ee 83bd
00000140: d53c 823b f253 7f3d 027f 843d 4555 d53d
00000150: 2d11 ac3d dfd5 42bc ba23 b9bd cf06 213e
00000160: 95db 293d cc7c 093d 948f 03be 94aa a33d
00000170: 66dc 04be b1f9 b23d 34a7 18bc d019 55bd
00000180: 2401 b1bd 8be1 e13d f2ed b5bd 5d94 45bd
00000190: ace9 3abb 9d93 343d e987 04be c0da 303c
000001a0: e0a7 c9bc 8b3a a4bd cfcc 2c3d 3a76 d83c
000001b0: 1ec8 32bd 641a 95bc 335a 02bc 5f1c d23c
000001c0: dc74 863d 47c2 ccbc 6f58 1c3d a991 e33d
000001d0: 0e7f 2bbd 81dd 0bbd 0353 71bd 8d62 d7bc
000001e0: 5495 423d b432 d5bd 930a 84bc 7d17 d33d
000001f0: fe93 d23d 7421 043e 5ed0 1e3e 7201 a73c
00000200: 68ae 573c 6a21 353e 5d97 4dbd 19e3 44bd
00000210: 2933 b6bd 2505 3bbe bb8a a4bb c923 52be
00000220: d78f ca3d 2d5d 283e baae 123e e5cc cbbd
00000230: 9ad2 27bd 2f21 333c 7fb7 c2bd 9bf0 723d
00000240: 79f9 96bb 0f25 f23d d3c8 20bd b026 4c3d
00000250: 2190 273e a104 e9bd 9e1c debd ac7c c63c
00000260: 391a cbbd 2a55 3f3e c31e 08be 2149 9c3d
00000270: 1bb6 1ebd 3ba1 a2bd 5032 373e 11b8 6abc
00000280: a756 4bbd e314 afbd 345a 173d 1e29 8dbb
00000290: f165 57bd a212 3bbe 4dc4 66bd b691 9e3d
000002a0: beae d0bc 5241 2b3e caca a1bd 8fdd 12be
000002b0: 2452 6ebd c723 1abd ed40 0a3e cb1a 2d3e
000002c0: e69d 6cbd 6c7f 35be 2dd6 91bd 05e9 0f3d
000002d0: cf5a 9f3c ef97 eb3d 2d0c 1dbe f65f 28be
000002e0: 1cdc 833d cc0b 8f3d eef6 0abe d32a 7dbd
000002f0: ff62 2b3e 820f 3bbe 534a 8ebd 3f14 c1bd
00000300: 3df1 d0bd 55da a93d 6671 01bd bcdc bdbd
00000310: ac82 5ebd e208 e83c 9a55 01be 46a3 033e
00000320: 01ec 4a3d 7497 20be 890c 3e3e 10f7 213e
00000330: e3aa 693c fab0 21bc 8dac b43c a117 5e3d
00000340: 4f63 0a3e f2e0 703d ea23 6cbd f84c df3d
00000350: 3b09 e03d 13c6 313e e283 33bd 3981 74bd
00000360: 0a38 92bc 7eac 013e 753a c03d 92ea adbd
00000370: 79fe 76bd e4d4 643d ff2e 5e3e d067 233e
00000380: b3a9 87bc 2100 203d 15f8 1e3d f2e7 e43d
00000390: 8045 29bc 7b8c a53d d290 d53d 69f9 03bd
000003a0: 1c9a 1ebc 6134 62bd 9f29 313e 66f2 54bd
000003b0: 9927 b4bd 8d0c b0bd f3d7 0cbd 30e8 7c3c
000003c0: 79ca a1bd 67cd b2bd b4b1 ce3d ce59 013e
000003d0: 5dbe 6e3d 7960 efbb d774 e8bd 95fb 8b3d
000003e0: d912 bb3d da6e f2bb 458b ebbc 39d6 eb3c
000003f0: 87f6 7f3e 53c0 ef3d 94be 9a3d e354 f43b

season_lstm.bias_hh_l0 f4 [256]
0.026256813 -0.011457763 -0.0014332472 -0.0072671087 0.023661802 0.07175431 -0.12877001 -0.049375806
-0.08531608 -0.10878747 0.061856147 0.13496146 0.0014025505 -0.025537914 -0.03397386 0.1610169
-0.015830992 -0.004037003 -0.1119553 0.12560421 0.15899175 -0.019532667 -0.05288858 0.085169636
-0.11551742 0.11661925 0.0009836385 -0.043254174 0.09006961 -0.013651201 0.16803162 -0.14722104
0.2846215 0.0036464862 0.025442977 0.027545622 0.005145445 0.22622326 -0.13356096 -0.050515715
0.10521531 -0.1002912 0.1372848 -0.035507176 0.015390021 -0.09660657 -0.017687079 0.030626394
-0.072413616 0.052731525 0.14378503 -0.007788909 -0.08151317 -0.032346014 -0.0268097 0.2023557
-0.29055598 0.041391667 0.023829801 -0.09562657 -0.21146405 -0.06507064 0.10594737 0.088253416
0.104834534 0.10744335 -0.012672827 -0.04778071 -0.017040048 0.100288965 0.11881973 0.11365133
-0.032556437 0.04095678 0.06549794 -0.060799625 0.038312495 0.13143449 0.13847773 0.075297974
0.0036529857 0.07895365 -0.009505459 0.013174036 -0.03324702 0.11573503 0.057413287 -0.0020803306
0.09425809 0.017545203 7.672033e-05 -0.062254883 0.04278821 0.054888573 -0.036137063 -0.010174169
0.021404618 0.11779618 -0.11685321 -0.019156704 -0.122757025 0.0067638736 -0.14635044 -0.13514826
-0.11700462 -0.11883301 -0.008776038 -0.0094661005 0.045190535 -0.11192922 -0.018751618 0.024401324
0.120091796 -0.056627154 -0.05824223 -0.012801068 0.021804268 0.11384911 -0.007472705 -0.011328873
-0.042367864 -0.023312084 0.08175794 -0.04609385 -0.115088016 0.062058374 0.18882982 -0.06845822
0.08842732 0.0015395483 0.07901079 -0.032030843 -0.17223893 0.0237225 -0.15748596 -0.064376816
-0.04945088 0.06451829 0.12473643 -0.11114145 -0.05957212 -0.1172511 0.071490675 0.055761628
-0.015150099 0.08927876 -0.15655619 -0.09357707 0.023182297 -0.070039466 -0.0065482627 -0.015045966
-0.1007602 0.039381947 -0.032210723 -0.052667554 0.0360162 0.09181479 -0.007873384 -0.060300536
-0.16053458 -0.15380666 0.06432951 0.03573513 0.011811161 -0.06874011 -0.2121601 0.110472925
-0.044802327 0.005810071 0.090353616 -0.06654711 0.089146085 -0.038386483 0.12207003 0.16725874
0.061502684 -0.083173946 -0.047023237 0.08006737 -0.028565913 0.07773184 0.034458708 -0.15455687
-0.06946258 -0.11169907 -0.032218035 0.091490775 -0.012915539 -0.117801026 0.061779242 -0.19008495
0.01105671 -0.023786932 0.15208067 0.019121923 -0.0031640774 0.09574364 -0.120398074 -0.04624443
0.11448387 -0.12619697 0.1735173 0.027895793 -0.018278385 -0.046082925 0.13671918 -0.036560033
0.1559456 0.13126238 0.009743935 0.02801981 0.10650371 0.1774363 -0.024814662 -0.006803719
0.020903762 -0.0014065136 -0.074434154 -0.09289561 0.082245335 -0.062233873 0.1020052 0.16538648
-0.0063517215 0.08070579 -0.03012691 0.16463669 -0.0052260943 -0.08091522 0.24601904 -0.060029462
-0.014055708 0.0048319134 -0.011901116 0.11016907 -0.1073177 0.012285808 0.08794858 0.019144267
0.07755232 0.14752269 0.13139436 0.017292539 0.009526733 0.10852279 -0.053427886 0.07959796
0.040312774 0.15948182 -0.17265189 -0.03567967 0.12823825 0.0016218227 0.1002458 -0.10763845
00000000: 8718 d73c 57b9 3bbc ccdb bbba ed20 eebb
00000010: 65d6 c13c ecf3 923d 49dc 03be 493e 4abd
00000020: 32ba aebd f7cb debd df5c 7d3d 5633 0a3e
00000030: c9d5 b73a e334 d1bc 2d28 0bbd 9de1 243e
00000040: ffaf 81bc d648 84bb d248 e5bd 649e 003e
00000050: bcce 223e f902 a0bc b2a1 58bd 6b6d ae3d
00000060: 6694 ecbd 13d6 ee3d 6eed 803a 4a2b 31bd
00000070: 6a76 b83d 49a9 5fbc 7b10 2c3e 1dc1 16be
00000080: e9b9 913e e3f9 6e3b ca6d d03c 5ba7 e13c
00000090: 1f9b a83b 12a7 673e 34c4 08be 91e9 4ebd
000000a0: 207b d73d 7965 cdbd 6394 0c3e f96f 11bd
000000b0: 6d26 7c3c aad9 c5bd 7ee4 90bc 34e4 fa3c
000000c0: 974d 94bd 03fd 573d 623c 133e 1b3a ffbb
000000d0: 60f0 a6bd 417d 04bd 04a0 dbbc 5536 4f3e
000000e0: c1c3 94be 4f8a 293d b736 c33c ddd7 c3bd
000000f0: 088a 58be c143 85bd effa d83d 35be b43d
00000100: 7db3 d63d 420b dc3d b0a1 4fbc b5b5 43bd
00000110: 9297 8bbc 4d64 cd3d c257 f33d 07c2 e83d
00000120: e659 05bd 4cc2 273d c923 863d 0709 79bd
00000130: 90ed 1c3d c396 063e 1bcd 0d3e d335 9a3d
00000140: ee66 6f3b 74b2 a13d c9bc 1bbc e9d7 573c
00000150: 072e 08bd 7d06 ed3d 322a 6b3d 2856 08bb
00000160: 630a c13d f5ba 8f3c eae4 a038 fafe 7ebd
00000170: b142 2f3d d7d2 603d 7504 14bd 8fb1 26bc
00000180: bd58 af3c 203f f13d bc50 efbd 85ee 9cbc
00000190: 0968 fbbd 7ca3 dd3b e4dc 15be 4e64 0abe
000001a0: 1ea0 efbd b95e f3bd 5fc9 0fbc b417 1bbc
000001b0: b619 393d 263b e5bd fe9c 99bc 49e5 c73c
000001c0: b0f2 f53d e0f1 67bd 688f 6ebd 92bb 51bc
000001d0: dd9e b23c b929 e93d 98dd f4bb bd9c 39bc
000001e0: ed89 2dbd fcf8 bebc b570 a73d e8cc 3cbd
000001f0: 44b3 ebbd ec30 7e3d 9b5c 413e d333 8cbd
00000200: 6219 b53d abca c93a 69d0 a13d c632 03bd
00000210: 675f 30be b055 c23c 0044 21be fed7 83bd
00000220: 028d 4abd 2a22 843d d075 ff3d 219e e3bd
00000230: e501 74bd 5821 f0bd b469 923d 4e66 643d
00000240: 1f38 78bc c8d7 b63d 4450 20be 56a5 bfbd
00000250: cde8 bd3c da70 8fbd cf92 d6bb 5b83 76bc
00000260: 5d5b cebd f74e 213d 64ef 03bd efb9 57bd
00000270: b985 133d 6509 bc3d 5eff 00bc b2fd 76bd
00000280: 2d63 24be 7e7f 1dbe 31bf 833d 005f 123d
00000290: 9a83 413c 9dc7 8cbd 7f40 59be a13f e23d
000002a0: a582 37bd 6862 be3b 510b b93d da49 88bd
000002b0: 3992 b63d 253b 1dbd daff f93d e045 2b3e
000002c0: 3dea 7b3d 1a57 aabd 709b 40bd 5cfa a33d
000002d0: 1003 eabc df31 9f3d 9324 0d3d 2844 1ebe
000002e0: 6642 8ebd 7bc2 e4bd 0ff7 03bd 845f bb3d
000002f0: b29b 53bc aa41 f1bd 3b0c 7d3d a1a5 42be
00000300: 3427 353c d0dc c2bc 09bb 1b3e 94a5 9c3c
00000310: 695c 4fbb 3e15 c43d 4493 f6bd cd6a 3dbd
00000320: 8576 ea3d c739 01be 85ae 313e b885 e43c
00000330: 8dbc 95bc 73c1 3cbd 1d00 0c3e f9bf 15bd
00000340: 34b0 1f3e a569 063e 07a5 1f3c cd89 e53c
00000350: 9e1e da3d ddb1 353e 1e48 cbbc bbf1 debb
00000360: 5e3e ab3c c45a b8ba ef70 98bd 0e40 bebd
00000370: 3e70 a83d f2e8 7ebd 1ae8 d03d 135b 293e
00000380: 1a22 d0bb 1449 a53d b6cc f6bc 8596 283e
00000390: a83f abbb e1b6 a5bd 6aec 7b3e 74e1 75bd
000003a0: ea49 66bc 0755 9e3b e6fc 42bc 52a0 e13d
000003b0: 62c9 dbbd 6a4a 493c 631e b43d 70d4 9c3c
000003c0: c0d3 9e3d 3010 173e 3e8c 063e 15a9 8d3c
000003d0: 0416 1c3c 3241 de3d 33d7 5abd 4104 a33d
000003e0: 021f 253d 344f 233e a8cb 30be d824 12bd
000003f0: e350 033e 5793 d43a ac4d cd3d 8c71 dcbd

label_emb.weight f4 [2, 4]
-1.4025137 -1.969099 -0.9692005 0.623851 -1.2253067 -0.2115747 0.9261849 0.5751254
00000000: 9285 b3bf 700b fcbf 861d 78bf b3b4 1f3f
00000010: dad6 9cbf 0aa7 58be 741a 6d3f 6b3b 133f

across_lstm.weight_ih_l0 f4 [256, 68]
0.027684463 0.12408437 -0.031023264 -0.082975134 0.05707789 0.110192664 -0.0069924104 -0.044246975
0.03575912 -0.058802094 0.0032456587 -0.050171565 -0.03363561 0.08508132 -0.036702055 0.073592626
-0.042676553 -0.09972607 -0.010279205 0.053154882 -0.029317804 0.0050913976 -0.06254613 -0.041888386
-0.12526894 -0.039737575 0.0725475 -0.13219589 -0.0644062 0.00553318 0.08785797 0.10957703
0.071203135 0.047966726 -0.111683264 0.058396675 0.01608042 -0.051365677 0.07784083 -0.009249859
-0.00029970318 -0.011768178 0.029554918 0.08203854 -0.031785 0.0416946 0.07882468 -0.08010184
-0.055322368 -0.00036685032 0.0058961776 0.10432723 0.009417884 -0.0038934294 0.11690238 0.08042146
-0.07885262 0.049561188 -0.12613115 -0.10425871 -0.061534356 -0.07418903 0.01067067 0.11419359
0.12587647 0.041747194 0.009430575 0.07536215 -0.09868485 -0.16663305 0.16056766 -0.10457443
0.048585452 -0.016263463 0.074996576 0.051554568 0.07430309 -0.077581674 -0.1913453 0.012907613
0.2124301 0.1423208 -0.25435328 -0.21019949 -0.04012586 0.054046083 0.12903424 -0.16545615
-0.21506876 0.06980601 0.16467938 0.11980623 0.086317055 -0.019688455 0.013546191 0.11958324
-0.23033294 -0.17696677 -0.15853576 0.17581265 0.16363502 0.13941257 0.043737233 -0.23609608
0.051966228 0.070606686 0.09920662 0.03712754 -0.16454005 -0.21890055 -0.13980855 -6.855689e-05
0.034610182 -0.033457883 -0.079844 0.0017991826 -0.036157027 0.10803965 0.08657612 -0.09547437
-0.20704302 0.077621184 0.19304308 0.15739882 0.03275091 -0.12113622 0.1554804 -0.22020915
-0.16593835 0.07005086 0.067490816 0.019720286 -0.2398419 -0.07577585 -0.02524653 0.109370604
0.021884669 -0.0030021598 -0.07690173 0.043348387 0.018230833 -0.046308275 0.10311481 0.0146696605
0.019429747 -0.15409142 0.03204205 -0.08875507 0.0134627335 -0.049255352 -0.048130766 -0.12523593
-0.045862827 0.037266802 0.13120149 -0.029197844 -0.14613724 -0.14432335 0.009635328 -0.052609496
0.13754117 0.041778754 0.074007966 0.025075078 0.061753046 0.072423585 -0.07417646 0.06374694
0.031640828 0.10612312 0.17866899 0.017657869 0.18350156 -0.046736013 0.09170736 -0.0068580303
-0.16056596 -0.15885209 0.07621541 0.03282045 -0.047783 0.018188352 0.0710573 -0.08114814
0.039474625 0.088340595 -0.046817962 0.13785763 -0.03984162 -0.013064776 0.08879369 0.06415544
0.1847328 0.05240223 0.1977478 -0.11039865 0.0016881252 -0.07983555 -0.113266304 -0.051835287
-0.12860559 -0.115038335 -0.010921102 0.02097417 -0.0634744 0.15063705 0.094188206 -0.062908374
0.011975066 -0.13583781 -0.06272737 0.07816906 -0.028367536 -0.002010736 0.017947223 -0.101603195
0.017046982 -0.10738299 -0.07187401 -0.035783317 -0.060014587 -0.10145992 -0.07705955 0.037785318
-0.0014623636 -0.011334138 -0.09225374 0.05683403 -0.11405901 0.06750003 -0.05934485 0.04416458
-0.09976936 -0.077508904 0.112738036 0.0022087297 -0.08328155 -0.14766476 -0.12024022 -0.04759265
0.069932155 0.00687949 0.051533636 -0.108761385 -0.026153062 0.06325928 -0.06443872 0.041300893
-0.14563471 -0.056754403 -0.03613339 -0.10836299 0.0876081 0.067317 0.114175536 0.011870954
00000000: 87ca e23c f21f fe3d 8024 febc deee a9bd
00000010: 81ca 693d b1ac e13d 9720 e5bb 513c 35bd
00000020: 2878 123d 77da 70bd 1eb5 543b b380 4dbd
00000030: 7ec5 09bd 1d3f ae3d e554 16bd bbb7 963d
00000040: 9ccd 2ebd 2f3d ccbd 1c6a 28bc efb8 593d
00000050: e42b f0bc bdd5 a63b 2f18 80bd 2893 2bbd
00000060: 8046 00be dec3 22bd c993 943d 5c5e 07be
00000070: 66e7 83bd ae4f b53b e1ee b33d ec69 e03d
00000080: f3d2 913d c278 443d 32ba e4bd 5a31 6f3d
00000090: 16bb 833c d164 52bd 036b 9f3d b88c 17bc
000000a0: 7b21 9db9 51cf 40bc 281d f23c d203 a83d
000000b0: fd30 02bd f5c7 2a3d d56e a13d 6f0c a4bd
000000c0: b599 62bd d155 c0b9 b934 c13b 84a9 d53d
000000d0: 784d 1a3c e828 7fbb 846a ef3d 02b4 a43d
000000e0: 7c7d a1bd ac00 4b3d 8628 01be 9785 d5bd
000000f0: 730b 7cbd 6bf0 97bd 09d4 2e3c 54de e93d
00000100: c3e5 003e 1bff 2a3d b382 1a3c 7957 9a3d
00000110: 481b cabd dba1 2abe d96b 243e 1e2b d6bd
00000120: 8a01 473d f43a 85bc ce97 993d e22a 533d
00000130: 382c 983d 24e3 9ebd 06f0 43be 747a 533c
00000140: 4787 593e 8bbc 113e 983a 82be 893e 57be
00000150: 045b 24bd 6d5f 5d3d 8d21 043e 566d 29be
00000160: fc3a 5cbe 74f6 8e3d b6a1 283e f85c f53d
00000170: ffc6 b03d af49 a1bc d8f0 5d3c 0fe8 f43d
00000180: 66dc 6bbe c736 35be 3357 22be 3b08 343e
00000190: f08f 273e 2bc2 0e3e d025 333d 2cc3 71be
000001a0: 8ada 543d 3d9a 903d d72c cb3d 0c13 183d
000001b0: 307d 28be 7727 60be f929 0fbe 33c6 8fb8
000001c0: 68c3 0d3d 220b 09bd 4085 a3bd 8dd2 eb3a
000001d0: 6419 14bd e443 dd3d d24e b13d 1188 c3bd
000001e0: 1603 54be dbf7 9e3d 16ad 453e 282d 213e
000001f0: d125 063d 4416 f8bd 4136 1f3e 827e 61be
00000200: beeb 29be d376 8f3d a038 8a3d 708c a13c
00000210: 1d99 75be 5e30 9bbd d0d1 cebc b2fd df3d
00000220: 7a47 b33c e2bf 44bb a77e 9dbd 148e 313d
00000230: d458 953c bfad 3dbd dc2d d33d 0459 703c
00000240: 222b 9f3c 24ca 1dbe 863e 033d 38c5 b5bd
00000250: cc92 5c3c fbbf 49bd c424 45bd d93d 00be
00000260: a9da 3bbd 13a5 183d af59 063e 5130 efbc
00000270: 00a5 15be 80c9 13be 7fdd 1d3c 0e7d 57bd
00000280: 98d7 0c3e 3320 2b3d 7d91 973d 406a cd3c
00000290: c3f0 7c3d d152 943d d4e9 97bd c18d 823d
000002a0: d099 013d 1457 d93d 01f5 363e 3ca7 903c
000002b0: d5e7 3b3e 436e 3fbd 12d1 bb3d 54b9 e0bb
000002c0: 676b 24be 1faa 22be d316 9c3d bc6e 063d
000002d0: 1bb8 43bd bdff 943c 7d86 913d ff30 a6bd
000002e0: 25b0 213d eaeb b43d 31c4 3fbd 8d2a 0d3e
000002f0: f730 23bd a40d 56bc 77d9 b53d ed63 833d
00000300: 982a 3d3e b9a3 563d 667e 4a3e b018 e2bd
00000310: 1544 dd3a d280 a3bd 2af8 e7bd 3d51 54bd
00000320: 2fb1 03be 3899 ebbd 6cee 32bc 06d2 ab3c
00000330: defe 81bd 9940 1a3e bfe5 c03d 1bd6 80bd
00000340: 1133 443c 1119 0bbe 3577 80bd 1a17 a03d
00000350: 0963 e8bc 8dc6 03bb 0e06 933c 5615 d0bd
00000360: 1da6 8b3c 9deb dbbd ae32 93bd 8791 12bd
00000370: dbd1 75bd 38ca cfbd 66d1 9dbd c7c4 1a3d
00000380: c8ac bfba d2b2 39bc 87ef bcbd cdca 683d
00000390: c597 e9bd 753d 8a3d 9613 73bd ebe5 343d
000003a0: e153 ccbd fdbc 9ebd 33e3 e63d 56c0 103b
000003b0: 848f aabd 6e35 17be 8140 f6bd 83f0 42bd
000003c0: 9738 8f3d 586d e13b ef14 533d 4abe debd
000003d0: f23e d6bc 158e 813d 73f8 83bd 202b 293d
000003e0: 4421 15be 4e77 68bd 9b00 14bd 6aed ddbd
000003f0: e06b b33d 7fdd 893d ddd4 e93d 647e 423c

across_lstm.weight_hh_l0 f4 [256, 64]
0.011067612 -0.06137863 0.007899704 -0.06332024 -0.07225219 0.14601105 -0.00035802225 0.086075015
0.12931266 -0.020179873 0.006662891 0.0638459 -0.04063046 -0.009942712 -0.11613967 0.10856043
-0.05237695 -0.03790745 0.06601211 -0.09836423 0.12847325 -0.02275393 0.060101464 -0.09767766
0.07804125 -0.15688327 -0.14058699 0.0847256 -0.09952727 -0.06417637 0.066194445 0.012672563
0.091403626 -0.018554896 -0.03302086 0.06999282 -0.13823292 -0.029973429 0.10854297 -0.002016063
0.09156079 0.0024619452 -0.07630401 0.020617733 -0.10423348 -0.015243705 0.068032265 0.13021263
-0.080513194 0.0068590515 0.04465595 -0.07921799 -0.08938905 -0.15214 -0.09286508 -0.021011755
-0.03149244 -0.037244573 0.016015356 -0.04980677 -0.10137506 0.032312907 0.06810953 -0.07803016
0.12997925 -0.029150043 -0.036431625 0.13309687 0.015084823 0.08423998 -0.09626073 0.104097016
-0.042348754 -0.10419774 -0.11386521 0.029432239 -0.081060715 0.083422676 0.1399504 0.054058857
0.13895486 0.082550265 0.05908735 -0.09131126 0.086006455 0.105437666 -0.08562105 0.03891649
-0.11615945 -0.04815055 0.027838433 0.060100675 -0.0043160142 0.10953964 -0.053275585 -0.071084656
0.07965501 -0.19292042 0.1376348 0.04699378 -0.034017306 0.10523064 0.043100715 -0.03453596
-0.09837215 0.022901919 0.019873103 -0.09477941 0.08328733 0.06179623 -0.028060118 -0.0533049
0.08356208 0.08996419 -0.121580176 -0.07980761 -0.02544148 -0.05863139 0.012511637 0.098633885
-0.07007755 -0.03156153 0.026326606 0.004340408 -0.063844845 0.1672198 -0.14203353 -0.071142524
-0.06591339 -0.02366592 0.028833449 0.09286733 -0.048092008 0.12279692 0.08820261 0.059482794
-0.07587304 0.19638734 0.055607125 -0.0036182962 0.03252908 -0.18052612 -0.011960283 0.014562969
-0.11509632 -0.08750819 -0.006267573 0.14125076 0.037591442 -0.17213501 -0.045199953 -0.06624948
-0.009005478 0.10193939 0.06761125 0.052549697 -0.080638155 0.094368644 0.10894949 0.053861875
-0.11932166 0.08561571 -0.05399269 0.0012799044 0.10234497 -0.15342206 -0.07499757 0.119767845
-0.010676398 -0.031040201 0.09346889 -0.0030938429 -0.056585178 0.030012907 -0.0064785113 0.15841891
-0.02390223 -0.002875251 -0.0028722412 0.024605598 0.1413664 0.044558126 -0.06366137 -0.015928548
0.07515755 -0.00086881017 -0.06373099 0.09004007 -0.10736667 -0.07312798 -0.015324085 0.08562008
-0.06580966 0.13475424 0.06877189 0.0105616655 -0.11178831 0.03633185 0.070422076 -0.09620209
0.030537516 -0.105316 0.053388122 -0.0436346 0.011205532 -0.10990443 0.03866571 0.06718875
0.078514434 -0.120988786 0.007404547 -0.034024924 -0.07964926 0.075643905 0.10241417 0.025710208
0.10264799 0.013570952 -0.09036561 -0.08607582 -0.08262561 -0.083351605 0.01842588 0.09194658
-0.03712752 0.14374249 -0.0399069 -0.0077825985 -0.09956065 -0.14372961 -0.07327462 -0.13401183
0.109237045 0.09440777 -0.047029246 -0.011724507 0.10981888 -0.08667412 -0.02483233 0.053338032
0.1108441 -0.0014797406 -0.060264584 0.073233575 0.07031649 0.08478937 -0.016542116 -0.013507786
-0.077653885 -0.09662968 -0.005295863 0.12643501 -0.07345561 -0.11123115 0.09861337 0.023179231
00000000: ee54 353c 2968 7bbd c36d 013c 0bae 81bd
00000010: f5f8 93bd ec83 153e efb4 bbb9 1948 b03d
00000020: 8a6a 043e 4350 a5bc 6154 da3b a4c1 823d
00000030: 206c 26bd c2e6 22bc a3da edbd ee54 de3d
00000040: 3689 56bd d844 1bbd 5b31 873d 2f73 c9bd
00000050: 7e8e 033e 7366 babc f42c 763d 3a0b c8bd
00000060: 17d4 9f3d 02a6 20be 09f6 0fbe 9e84 ad3d
00000070: f4d4 cbbd e76e 83bd f490 873d 95a0 4f3c
00000080: d331 bb3d 7000 98bc e240 07bd 6558 8f3d
00000090: ee8c 0dbe d68a f5bc c74b de3d ed1f 04bb
000000a0: 3984 bb3d 9658 213b 4745 9cbd 85e6 a83c
000000b0: 5d78 d5bd bcc0 79bc 8054 8b3d 7656 053e
000000c0: 1ae4 a4bd e5c1 e03b 28e9 363d 0b3d a2bd
000000d0: 9b11 b7bd 97ca 1bbe 0c30 bebd d820 acbc
000000e0: 37fe 00bd c48d 18bd a332 833c 2f02 4cbd
000000f0: ba9d cfbd 8a5a 043d 027d 8b3d 47ce 9fbd
00000100: 4819 053e 12cc eebc 5439 15bd 8c4a 083e
00000110: 5526 773c 0386 ac3d 5824 c5bd d130 d53d
00000120: e375 2dbd a065 d5bd 2a32 e9bd e11b f13c
00000130: 2903 a6bd 82d9 aa3d 284f 0f3e d26c 5d3d
00000140: 2f4a 0e3e 1d10 a93d 9405 723d 6601 bbbd
00000150: 2724 b03d b4ef d73d 175a afbd e666 1f3d
00000160: 01e5 edbd 8339 45bd 6d0d e43c 202c 763d
00000170: 5a6d 8dbb 5256 e03d 8037 5abd d594 91bd
00000180: 2a22 a33d ee8c 45be 23f0 0c3e 8d7c 403d
00000190: bb55 0bbd 2983 d73d 608a 303d 9475 0dbd
000001a0: 5677 c9bd ce9c bb3c ebcc a23c b51b c2bd
000001b0: 8c92 aa3d 0b1e 7d3d 55de e5bc 3d56 5abd
000001c0: 9922 ab3d 253f b83d 07ff f8bd 2c72 a3bd
000001d0: a76a d0bc 7827 70bd 9cfd 4c3c 9000 ca3d
000001e0: d284 8fbd aa46 01bd e5aa d73c fb39 8e3b
000001f0: 16c1 82bd ab3b 2b3e 3d71 11be 2cb3 91bd
00000200: 99fd 86bd 08df c1bc 2034 ec3c 3a31 be3d
00000210: 20fc 44bd f47c fb3d 92a3 b43d 3ba4 733d
00000220: 5363 9bbd c319 493e 4cc4 633d f020 6dbb
00000230: 363d 053d d7db 38be 10f5 43bc 8599 6e3c
00000240: 9fb7 ebbd 7e37 b3bd 3760 cdbb 0aa4 103e
00000250: 7cf9 193d 2944 30be 9623 39bd cfad 87bd
00000260: b68b 13bc 99c5 d03d c477 8a3d 5a3e 573d
00000270: 9e25 a5bd 5944 c13d e920 df3d 459e 5c3d
00000280: ea5e f4bd 4a57 af3d 7027 5dbd 77c2 a73a
00000290: 3d9a d13d ac1a 1dbe 5398 99bd d848 f53d
000002a0: 0fec 2ebc 0548 febc 9e6c bf3d 12c2 4abb
000002b0: dcc5 67bd a1dd f53c b149 d4bb 9138 223e
000002c0: 9cce c3bc b56e 3cbb 363c 3cbb ae91 c93c
000002d0: 5bc2 103e 9582 363d e460 82bd 967c 82bc
000002e0: 34ec 993d ddc0 63ba 6585 82bd ee66 b83d
000002f0: 0fe3 dbbd 1fc4 95bd df11 7bbc 9559 af3d
00000300: 37c7 86bd 04fd 093e 47d8 8c3d d60a 2d3c
00000310: 45f1 e4bd b5d0 143d 7339 903d 9a05 c5bd
00000320: d029 fa3c eaaf d7bd 81ad 5a3d 32ba 32bd
00000330: 6897 373c 9315 e1bd ef5f 1e3d 419a 893d
00000340: 2dcc a03d f8c8 f7bd d8a1 f23b b85d 0bbd
00000350: 271f a3bd 31eb 9a3d 85be d13d 379e d23c
00000360: 1c39 d23d b358 5e3c 9b11 b9bd 8548 b0bd
00000370: 9e37 a9bd 3fb4 aabd dff1 963c 7d4e bc3d
00000380: 0713 18bd 3b31 133e 6b75 23bd 2b05 ffbb
00000390: 74e6 cbbd db2d 13be 0111 96bd 663a 09be
000003a0: acb7 df3d dc58 c13d bda1 40bd 2618 40bc
000003b0: b9e8 e03d 3382 b1bd 2c6d cbbc fb78 5a3d
000003c0: 3b02 e33d dbf3 c1ba ffd7 76bd 7cfb 953d
000003d0: 1802 903d 0da6 ad3d 5583 87bc c34f 5dbc
000003e0: 0009 9fbd c8e5 c5bd eb88 adbb 2e78 013e
000003f0: e56f 96bd 28cd e3bd cef5 c93d 5fe2 bd3c

across_lstm.bias_ih_l0 f4 [256]
-0.12191647 0.12340084 0.118176214 0.081970945 0.05541848 -0.11614795 -0.06296049 0.06470774
0.12151851 -0.039259266 -0.0024380288 -0.12455267 -0.054361433 -0.073407985 -0.13490026 -0.06475869
-0.16174999 0.037168015 0.12475785 -0.09713245 0.034804046 0.10036765 -0.06341988 -0.10858639
0.09088116 0.08326203 -0.08452731 0.04592233 -0.11297282 0.004346096 0.07108985 -0.08187533
0.052127626 0.025551409 -0.02835215 0.037896533 -0.13111825 -0.037876032 0.09346573 0.07009508
0.104681864 0.11099259 0.03507784 0.028192937 -0.035596106 -0.1204453 0.026484158 -0.115384296
-0.10738422 0.070951454 -0.014026128 0.015208625 0.12246164 0.02242206 0.013108163 0.061326727
-0.072167106 -0.0006769379 -0.01820095 -0.0009319746 0.046750117 -0.112635806 0.021201974 -0.09515299
0.055916365 0.074144095 0.090443425 0.09459967 -0.10128116 -0.05911188 0.06481149 0.10051349
0.07426186 0.07074818 -0.039913915 -0.11607329 0.09218027 0.054750383 -0.016723622 -0.128217
-0.013957806 -0.09138439 0.14886512 0.00209287 0.107603796 -0.029627707 -0.008184784 -0.033270106
-0.1095734 0.05786725 0.09393582 0.08866445 -0.08161879 -0.005150995 -0.013460127 -0.058996215
-0.066962816 0.10062053 0.036502108 -0.026469255 0.02071963 -0.115999214 -0.13765603 -0.024073357
-0.034775253 -0.05609718 0.0049532563 -0.15716751 0.07973228 -0.0011547784 -0.024514709 0.063960075
0.055465233 -0.060824927 -0.019817013 0.032040488 0.09943168 0.05825425 -0.1179839 -0.11565153
-0.0727587 -0.1499672 0.08146988 -0.07374245 0.03173872 0.011108269 -0.18262474 0.045781966
0.008597495 -0.034689862 -0.029689593 -0.029929679 -0.037652526 -0.13055815 -0.022994598 -0.024740998
0.02670533 -0.10786353 0.049741693 0.039568134 0.1095337 0.023968888 0.040506452 0.07580312
-0.054169513 -0.08488664 -0.08732075 0.07471524 -0.08458625 0.0061948556 -0.058014456 -0.026268598
-0.08285239 0.03799407 -0.049460772 -0.11960984 0.056129925 -0.031573504 0.124224246 0.006950463
0.08926384 -0.03703472 0.112618044 0.07543131 0.1093836 0.04369279 -0.06339424 8.950323e-05
-0.025311064 0.097935565 -0.026005477 0.0932846 -0.07709186 -0.042851895 0.0816191 -0.0220104
-0.12355673 0.04870946 0.10769313 -0.004138836 -0.10252764 -0.08714637 0.0053068735 0.07203799
0.019789698 0.08191564 -0.103192724 -0.053296424 -0.049060702 -0.06433421 0.023384774 -0.02915289
0.054355234 0.053001605 0.09670915 -0.05902948 -0.04792025 0.022678014 -0.034741204 -0.0417651
0.1091847 0.11673126 0.04983926 -0.02421571 0.067732185 0.11397849 0.0075024622 0.15151608
-0.07438812 -0.08890579 -0.093928844 0.099855356 -0.027797965 -0.03291934 0.020504843 0.0321337
0.085907176 -0.12561186 -0.110769436 0.10471877 -0.11103153 -0.06430105 -0.12529549 0.09907759
-0.07948676 -0.010090886 -0.044558924 -0.09080297 -0.10882778 0.10961014 -0.05371013 0.07636893
-0.09414338 -0.09902713 0.109695315 -0.051316533 0.002493804 -0.0067945025 -0.017982699 -0.10831024
0.039715115 -0.08286539 0.04282224 0.00659944 -0.0011255267 0.0054434934 -0.07781852 -0.1370538
0.06438548 0.025574425 0.1242671 0.031620223 -0.13245827 -0.04365849 0.04964991 0.04902619
00000000: 58af f9bd 94b9 fc3d 5f06 f23d 62e0 a73d
00000010: 7dfe 623d fade edbd 6ef1 80bd 7e85 843d
00000020: b2de f83d 53ce 20bd 56c7 1fbb 7815 ffbd
00000030: 18aa 5ebd ed56 96bd 4b23 0abe 34a0 84bd
00000040: caa1 25be 7d3d 183d 0b81 ff3d 61ed c6bd
00000050: b08e 0e3d 8e8d cd3d 48e2 81bd 8b62 debd
00000060: e71f ba3d 4885 aa3d a81c adbd 0e19 3c3d
00000070: 4b5e e7bd b269 8e3b 8e97 913d 41ae a7bd
00000080: c783 553d 3051 d13c c542 e8bc 6539 1b3d
00000090: dd43 06be e623 1bbd f66a bf3d 028e 8f3d
000000a0: 7263 d63d 1550 e33d c8ad 0f3d e0f4 e63c
000000b0: 39cd 11bd 07ac f6bd 4ef5 d83c 9a4e ecbd
000000c0: 42ec dbbd ff4e 913d d8cd 65bc 992d 793c
000000d0: 2bcd fa3d 78ae b73c 9fc3 563c bc31 7b3d
000000e0: 59cc 93bd 8974 31ba 291a 95bc c24f 74ba
000000f0: 0d7d 3f3d 9aad e6bd c3af ad3c 92df c2bd
00000100: 8f08 653d dcd8 973d 673a b93d 79bd c13d
00000110: 7f6c cfbd 4c1f 72bd e3bb 843d 04da cd3d
00000120: 9a16 983d 6ce4 903d c67c 23bd d5b7 edbd
00000130: 02c9 bc3d f041 603d faff 88bc 514b 03be
00000140: 48af 64bc bd27 bbbd 1970 183e 8828 093b
00000150: 615f dc3d ceb5 f2bc 7919 06bc 3c46 08bd
00000160: 0568 e0bd 3606 6d3d 6c61 c03d b595 b53d
00000170: c127 a7bd aec9 a8bb dd87 5cbc 04a6 71bd
00000180: cd23 89bd 2312 ce3d 3c83 153d 0dd6 d8bc
00000190: 37bc a93c ff90 edbd b4f5 0cbe 7d35 c5bc
000001a0: 7f70 0ebd 28c6 65bd ed4e a23b 85f0 20be
000001b0: ad4a a33d ef5b 97ba 12d3 c8bc 80fd 823d
000001c0: 832f 633d 8f23 79bd 4a57 a2bc e33c 033d
000001d0: d6a2 cb3d 029c 6e3d 8ba1 f1bd b6da ecbd
000001e0: 8302 95bd 0091 19be aed9 a63d 4806 97bd
000001f0: 7600 023d 75ff 353c fb01 3bbe df85 3b3d
00000200: 82dc 0c3c f516 0ebd 9737 f3bc 162f f5bc
00000210: 8939 1abd 09b1 05be 2b5f bcbc a2ad cabc
00000220: 23c5 da3c 8ee7 dcbd f2bd 4b3d 3212 223d
00000230: 3453 e03d 675a c43c 18ea 253d ab3e 9b3d
00000240: dae0 5dbd 0cd9 adbd 39d5 b2bd 4e04 993d
00000250: 8e3b adbd 37fe ca3b 91a0 6dbd 3e31 d7bc
00000260: 84ae a9bd ac9f 1b3d 6197 4abd 01f6 f4bd
00000270: 7ee8 653d 3853 01bd 4869 fe3d b6c0 e33b
00000280: f6cf b63d b8b1 17bd 4aa4 e63d bb7b 9a3d
00000290: 8204 e03d 36f7 323d d7d4 81bd aeb3 bb38
000002a0: 2659 cfbc 7192 c83d 7009 d5bc ff0b bf3d
000002b0: 56e2 9dbd 7885 2fbd ea27 a73d 284f b4bc
000002c0: 500b fdbd 9283 473d 378e dc3d 139f 87bb
000002d0: 03fa d1bd cc79 b2bd 48e5 ad3b a788 933d
000002e0: 011e a23c 63c3 a73d b556 d3bd 5a4d 5abd
000002f0: e0f3 48bd a7c1 83bd 6d91 bf3c 0bd2 eebc
00000300: 98a3 5e3d 3618 593d 720f c63d e5c8 71bd
00000310: 0648 44bd 3ec7 b93c cb4c 0ebd e211 2bbd
00000320: 3a9c df3d cd10 ef3d 4024 4c3d 0660 c6bc
00000330: 2cb7 8a3d 8e6d e93d 37d7 f53b 0827 1b3e
00000340: cc58 98bd 3d14 b6bd c45d c0bd f780 cc3d
00000350: 8fb8 e3bc 6ed6 06bd c6f9 a73c a09e 033d
00000360: 1af0 af3d 65a0 00be 16db e2bd cb76 d63d
00000370: 8064 e3bd 45b0 83bd 764d 00be 31e9 ca3d
00000380: f4c9 a2bd 3e54 25bc 6b83 36bd e8f6 b9bd
00000390: 19e1 debd 487b e03d 27ff 5bbd 5067 9c3d
000003a0: 3fce c0bd bcce cabd f0a7 e03d 4931 52bd
000003b0: 176f 233b 6ba4 debb 7450 93bc c2d1 ddbd
000003c0: 51ac 223d 54b5 a9bd 6066 2f3d 1d40 d83b
000003d0: 6986 93ba 555f b23b 515f 9fbd d557 0cbe
000003e0: 89dc 833d 7581 d13c c07f fe3d 3584 013d
000003f0: 24a3 07be 3fd3 32bd b45d 4b3d b0cf 483d
